submission/old_models/model_1.pt (torch, 869434 bytes, 46 tensors)

feature_extractor.0.weight f4 [32, 3, 5, 5]
0.036181543 -0.055108707 -0.04247452 0.048115198 0.09919177 -0.10072968 0.045555335 0.02096884
0.030420715 -0.02674883 -0.045867298 0.018905314 0.07951334 0.09896671 -0.06818926 0.09861579
-0.016365927 0.08944052 0.085075475 0.09167179 0.05600339 -0.09325692 -0.05769338 -0.11997844
-0.044906467 -0.059899863 -0.069475725 0.022815963 0.073435046 -0.0043255435 0.044733796 0.06995662
-0.0656739 -0.007092675 -0.017423369 0.0035107143 0.024148101 0.08333099 0.05939129 0.008795584
-0.09782294 0.021540867 -0.030453512 0.010373449 0.05339915 -0.036475897 0.013378547 -0.058891278
0.0656902 0.011634145 -0.073133744 0.083134994 -0.03809968 -0.027260303 0.046373777 0.06285677
0.10179625 0.078159235 -0.037126224 -0.097365685 0.051268626 -0.09621704 0.04672625 -0.021200432
-0.05159887 0.10361398 0.11741459 0.044381123 0.11660397 -0.029227853 -0.0878729 0.10750621
0.09430883 0.070747465 -0.017376114 0.0873128 -0.05097344 0.08405776 0.03887013 0.08962939
-0.02037165 0.03720014 0.06821227 0.09307597 -0.10961679 -0.025306605 -0.016629165 0.08452373
0.076759435 -0.014721403 0.006145873 0.011232193 -0.020266663 0.101917714 0.0066757933 0.03681332
0.03601084 0.070966795 -0.11055922 0.04598702 0.061334558 -0.07248819 0.0036523978 0.101811506
-0.04727677 -0.013954426 -0.017537387 0.08231581 0.055962536 0.098074265 -0.07519959 -0.07975016
-0.08103104 -0.0030197976 -0.013119873 -0.099742204 -0.05410064 -0.05864924 0.074395485 0.09098847
0.02519893 -0.011926584 -0.08416357 -0.013415659 -0.029316345 -0.09296376 -0.0012575547 0.1276293
0.09730338 -0.049641304 0.024814438 0.05408533 -0.002457002 0.05441501 0.061834317 0.072587006
0.0773963 0.08103416 0.09745408 -0.016621226 0.07646137 0.09494619 0.07687817 -0.06384897
-0.017265866 0.116325356 0.123432204 -0.016175682 -0.09991053 0.0014148104 -0.010712586 -0.12742014
0.053910494 -0.019580292 0.0067271455 -0.05643077 -0.006207547 0.10713325 0.041338585 0.07399654
-0.09829285 -0.08744964 -0.024649702 -0.09103565 -0.00022614282 0.11345462 0.030381251 -0.08402085
0.011903309 -0.09677519 0.06068913 0.0123676695 -0.08000396 0.028225098 -0.020556873 0.08437205
0.011714957 -0.035090163 0.0018581363 0.06279126 0.06551942 0.057311907 0.062618025 0.08196296
-0.067203745 0.044666205 0.08490002 0.09025603 -0.04714141 -0.038924772 -0.09681524 0.10411301
-0.09835093 0.0024548988 -0.038313918 0.06786813 -0.0824043 0.06022196 -0.07541443 0.022763928
0.03786377 0.074976355 0.014456985 0.04313255 0.047788627 -0.03394513 0.044881083 0.01217497
0.06215565 0.0032512299 -0.085680515 -0.041247524 -0.036246017 -0.10341341 0.10124791 -0.07817228
0.07566565 -0.03112237 0.09778505 -0.05539113 -0.0038459413 -0.09614747 -0.07308062 -0.10129005
0.04815508 -0.047218796 0.022110956 -0.09912559 0.04825263 -0.0034655554 0.040260307 0.009779396
0.044213627 0.009531613 0.008901364 0.10184056 -0.115459144 0.04543998 0.070266694 -0.0118162725
0.076474555 -0.1264617 0.046747755 -0.03740148 -0.11675366 -0.06752308 -0.08304443 -0.026572164
0.037734304 -0.08766152 0.059389878 -0.015497226 0.10390731 -0.10435338 0.08375793 -0.03320464
00000000: 1933 143d abb9 61bd c3f9 2dbd 7114 453d
00000010: 0e25 cb3d 5d4b cebd 3b98 3a3d d8c6 ab3c
00000020: dd34 f93c 5d20 dbbc 59df 3bbd 51df 9a3c
00000030: e4d7 a23d 0faf ca3d d0a6 8bbd 13f7 c93d
00000040: d611 86bc 972c b73d 0d3c ae3d 6bbe bb3d
00000050: d063 653d 7cfd bebd e54f 6cbd 42b7 f5bd
00000060: d8ef 37bd 8f59 75bd 4a49 8ebd 8be8 ba3c
00000070: 1d65 963d 4abd 8dbb c93a 373d 6b45 8f3d
00000080: 0a80 86bd ac69 e8bb 74bb 8ebc 0314 663b
00000090: 3dd2 c53c 70a9 aa3d 4844 733d 5a1b 103c
000000a0: 6557 c8bd 7976 b03c a579 f9bc 66f5 293c
000000b0: 11b9 5a3d c067 15bd b131 5b3c fb37 71bd
000000c0: 9588 863d 249d 3e3c 25c7 95bd ae42 aa3d
000000d0: 690e 1cbd 0051 dfbc 6ef2 3d3d 0dbb 803d
000000e0: 8d7a d03d f311 a03d ab11 18bd a967 c7bd
000000f0: 0dff 513d 710d c5bd 0664 3f3d 87ac adbc
00000100: 5659 53bd 9133 d43d 1077 f03d fbc8 353d
00000110: 10ce ee3d 406f efbc b5f6 b3bd 372c dc3d
00000120: fd24 c13d 0ce4 903d 5a58 8ebc 0ed1 b23d
00000130: 87c9 50bd 7a26 ac3d 4936 1f3d 9d8f b73d
00000140: 72e2 a6bc 2d5f 183d e0b2 8b3d 9d9e be3d
00000150: c57e e0bd cc4f cfbc e339 88bc c71a ad3d
00000160: 0d34 9d3d 0a32 71bc 5263 c93b 3b07 383c
00000170: 4606 a6bc 3cba d03d 9dc0 da3b 90c9 163d
00000180: 1a80 133d 0a57 913d df6c e2bd e35c 3c3d
00000190: f239 7b3d b074 94bd 115d 6f3b 8d82 d03d
000001a0: 49a5 41bd 1ba1 64bc 91aa 8fbc 3195 a83d
000001b0: f938 653d 29db c83d 3e02 9abd 0d54 a3bd
000001c0: 9af3 a5bd cce7 45bb bcf4 56bc a445 ccbd
000001d0: a298 5dbd 2f3a 70bd a95c 983d 2a58 ba3d
000001e0: fd6d ce3c b867 43bc f35d acbd 5acd 5bbc
000001f0: d528 f0bc c963 bebd 89d4 a4ba 41b1 023e
00000200: ff46 c73d ae54 4bbd a647 cb3c 9488 5d3d
00000210: a705 21bb 46e2 5e3d fb45 7d3d 7fa8 943d
00000220: f481 9e3d 3df5 a53d 0196 c73d 3d29 88bc
00000230: c797 9c3d 2673 c23d 4d72 9d3d 40c3 82bd
00000240: 2571 8dbc fd3b ee3d 06ca fc3d dd82 84bc
00000250: e49d ccbd 2971 b93a d883 2fbc 6d7a 02be
00000260: 40d1 5c3d d966 a0bc 636f dc3b f323 67bd
00000270: ae68 cbbb ad68 db3d a652 293d 7f8b 973d
00000280: c34d c9bd cc18 b3bd 2cee c9bc e670 babd
00000290: c020 6db9 e55a e83d 1ae2 f83c 2013 acbd
000002a0: 1906 433c 1232 c6bd 2a95 783d c4a1 4a3c
000002b0: 1ed9 a3bd 5238 e73c e366 a8bc 41cb ac3d
000002c0: 17f0 3f3c b4ba 0fbd b58c f33a b498 803d
000002d0: 0c2f 863d e4bf 6a3d e13d 803d 32dc a73d
000002e0: 1ea2 89bd e9f3 363d 10e0 ad3d 27d8 b83d
000002f0: 5a17 41bd 956f 1fbd 1247 c6bd 3439 d53d
00000300: 366c c9bd 5ee2 203b 0eef 1cbd 72fe 8a3d
00000310: 96c3 a8bd 4dab 763d e172 9abd 6b7b ba3c
00000320: 0a17 1b3d 348d 993d fddc 6c3c c2ab 303d
00000330: 02be 433d 0c0a 0bbd 3ad5 373d 8679 473c
00000340: ec96 7e3d 9612 553b 4479 afbd 2af3 28bd
00000350: b476 14bd 69ca d3bd 105b cf3d ca18 a0bd
00000360: 98f6 9a3d 57f4 febc 8743 c83d cfe1 62bd
00000370: 300c 7cbb f7e8 c4bd 4bab 95bd 2871 cfbd
00000380: 433e 453d 7f68 41bd 0922 b53c 5b02 cbbd
00000390: 8da4 453d 5f1e 63bb fee7 243d c239 203c
000003a0: 5919 353d 7c2a 1c3c 07d7 113c c991 d03d
000003b0: d875 ecbd 461f 3a3d fce7 8f3d 0a99 41bc
000003c0: b19e 9c3d 2d7f 01be 937a 3f3d 4b32 19bd
000003d0: 8b1c efbd 8a49 8abd 3313 aabd dead d9bc
000003e0: 498f 1a3d e287 b3bd cd42 733d 14e8 7dbc
000003f0: 5bcd d43d 3ab7 d5bd 4789 ab3d 9701 08bd

feature_extractor.0.bias f4 [32]
-0.052754346 -0.03529547 0.003046745 0.036063787 0.04758493 -0.034763094 0.030397374 -0.1115583
0.052136 -0.1067524 0.10181064 -0.0473313 -0.015424528 -0.01238224 0.019722857 -0.0037831387
-0.009425948 0.029427482 0.11629106 -0.063233055 0.024628747 0.063986965 0.10181476 -0.084722675
0.015831308 -0.0811977 0.042386085 -0.08941394 -0.119912356 0.103005685 0.11255307 0.059104703
00000000: f114 58bd fc91 10bd e6ab 473b 9fb7 133d
00000010: 6ae8 423d bf63 0ebd ea03 f93c ae78 e4bd
00000020: 8f8c 553d 01a1 dabd 1982 d03d 77de 41bd
00000030: 29b7 7cbc e1de 4abc d491 a13c 89ee 77bb
00000040: 4b6f 1abc e711 f13c 022a ee3d 5580 81bd
00000050: 3ac2 c93c 990b 833d 4284 d03d 1583 adbd
00000060: a9b0 813c fb4a a6bd 089d 2d3d a81e b7bd
00000070: 9c94 f5bd a5f4 d23d 3982 e63d c617 723d

feature_extractor.2.weight f4 [32]
0.9983899 0.99321693 0.99701464 1.0020941 0.9830014 1.0052437 0.99007314 0.99214935
1.0028613 1.0028604 0.9987412 0.99526215 1.0063357 0.9948403 1.0083208 0.9920773
1.0002863 1.0094244 0.99318963 1.0094638 0.9917962 1.0095707 1.019974 0.9922404
0.9979749 1.012494 1.0055399 0.99040174 0.9952151 1.0036929 1.0115055 1.0110775
00000000: 7b96 7f3f 7743 7e3f 5a3c 7f3f 9f44 803f
00000010: fba5 7b3f d3ab 803f 6f75 7d3f 80fd 7d3f
00000020: c25d 803f bb5d 803f 81ad 7f3f 80c9 7e3f
00000030: 9ccf 803f dbad 7e3f a810 813f c7f8 7d3f
00000040: 6209 803f d234 813f ad41 7e3f 1c36 813f
00000050: 5be6 7d3f 9d39 813f 828e 823f 7803 7e3f
00000060: 487b 7f3f 6799 813f 88b5 803f f88a 7d3f
00000070: 6bc6 7e3f 0279 803f 0379 813f fd6a 813f

feature_extractor.2.bias f4 [32]
0.0047734748 -0.0036103313 -0.0022755282 -0.004997552 -0.017504452 0.0039551947 -0.009356736 -0.004644309
-0.002984799 -0.0016447509 0.0040326617 -0.0058632926 0.002680722 0.009885124 0.01610085 -0.004302076
-0.0034048657 -0.00642997 -0.0040896293 0.0063656927 -0.0051590623 0.002864742 0.007170825 -0.010722845
-0.007544521 0.008742415 0.0069243456 -0.01406316 -0.010307636 0.0035044213 0.010413218 0.0072028036
00000000: cf6a 9c3b 4f9b 6cbb 0721 15bb 81c2 a3bb
00000010: 7f65 8fbc 949a 813b ff4c 19bc 4a2f 98bb
00000020: 9e9c 43bb af94 d7ba 6b24 843b dd20 c0bb
00000030: 0daf 2f3b 37f5 213c eee5 833c 6ef8 8cbb
00000040: 2b24 5fbb 7fb2 d2bb 4c02 86bb 4d97 d03b
00000050: 5a0d a9bb 65be 3b3b 3df9 ea3b dfae 2fbc
00000060: 0738 f7bb 593c 0f3c 9fe5 e23b 2b69 66bc
00000070: 5ce1 28bc 6faa 653b 349c 2a3c 7f05 ec3b

feature_extractor.2.running_mean f4 [32]
0.14707737 0.050550263 0.40041715 0.41499394 -0.021544112 0.28526795 0.53155154 -0.1473456
0.28930956 0.20227341 0.21626012 0.18834409 0.2962823 0.14078172 0.21644348 0.5423548
0.5075764 0.1688008 0.2500516 0.15428433 0.16391696 0.17336693 0.61736745 0.29350203
0.25633723 0.3862249 0.600153 0.53475225 0.12950625 0.18184777 0.4050827 0.51892143
00000000: 739b 163e cb0d 4f3d 7a03 cd3e 167a d43e
00000010: 477d b0bc a40e 923e c313 083f c4e1 16be
00000020: 6220 943e c320 4f3e 4b73 5d3e 46dd 403e
00000030: 50b2 973e 1529 103e 5ca3 5d3e c4d7 0a3f
00000040: 87f0 013f 1eda 2c3e c306 803e b6fc 1d3e
00000050: d9d9 273e 1a87 313e cb0b 1e3f e645 963e
00000060: a23e 833e 45bf c53e a1a3 193f 86e5 083f
00000070: 499d 043e 4d36 3a3e 0067 cf3e 09d8 043f

feature_extractor.2.running_var f4 [32]
1.2140489 2.1399379 0.19628084 0.34565708 0.72949576 1.1557511 2.9951193 0.13653494
0.3716515 0.8374949 1.5324725 0.94885737 0.5909023 0.6184804 0.46386245 2.647123
0.0545123 0.51103455 0.5812533 0.8695443 0.6317713 0.2973499 0.40478173 0.26382518
6.025957 0.4893379 0.28618252 0.26848927 0.9339626 0.45884773 1.7251861 0.7000682
00000000: f465 9b3f bef4 0840 d8fd 483e f7f9 b03e
00000010: 3cc0 3a3f a7ef 933f 09b0 3f40 d1cf 0b3e
00000020: 1b49 be3e 1166 563f 0f28 c43f 51e8 723f
00000030: 6045 173f bb54 1e3f 617f ed3e 776a 2940
00000040: 4a48 5f3d 29d3 023f 04cd 143f 759a 5e3f
00000050: c4bb 213f 3f3e 983e 8d3f cf3e 1814 873e
00000060: a4d4 c040 7f8a fa3e 8486 923e 6d77 893e
00000070: 2c18 6f3f 17ee ea3e e6d2 dc3f ab37 333f

feature_extractor.4.conv1.weight f4 [32, 32, 3, 3]
-0.022051714 0.003118856 0.015766913 0.04157595 -0.016273307 -0.003205821 0.004118553 0.036195453
0.028411338 -0.048787124 -0.026568884 -0.05858258 0.003743388 0.017391246 0.013677312 0.019073058
-0.009910303 0.00032733957 -0.0045072893 0.01585668 0.054683644 -0.043572135 0.06451635 0.05982504
-0.0233445 0.014844212 0.028163781 0.051003523 0.05553122 -0.042703096 0.06523519 0.038152467
-0.047067493 -0.029756976 0.035767015 0.04515305 0.034645613 -0.035278827 -0.018831281 -0.00016214343
-0.049688544 -0.0065661287 -0.013542519 0.026377931 0.03118584 0.027695011 0.03298308 0.042295717
-0.048301604 -0.02467347 -0.04225288 -0.034886703 -0.025575235 -0.031473335 0.026734328 -0.05230704
0.028990133 -0.040569596 0.031678416 0.0598896 0.021534564 0.0686849 0.065739565 -0.015316946
-0.008747531 -0.04768335 0.015656883 -0.037019394 0.022714354 -0.005963183 -0.06391153 0.011418208
0.046745222 -0.0030940901 -0.056386925 0.014592437 -0.022280065 0.012897342 0.0111184325 -0.013673226
0.027349599 -0.021838801 -0.05593139 -0.027980791 -0.019501576 -0.047485545 -0.031994212 -0.038560275
-0.0057989834 0.026133088 -0.02302833 -0.024364388 0.006725863 -0.032622382 -0.0025116522 0.014647732
0.027608097 -0.0069185565 0.05784614 -0.05281191 0.009500384 0.005247164 0.031169748 -0.058832232
-0.059307966 -0.004238865 -0.062287845 -0.04077298 0.010458629 -0.027945518 0.02498417 -0.0019729368
-0.05683426 0.013426399 -0.027246037 -0.037770018 -0.017587014 -0.048852194 -0.019510113 -0.01321777
-0.05275306 0.0004706036 -0.018642731 -0.04744513 -0.015091391 -0.023626763 -0.0032972223 0.04670889
-0.027955918 -0.035290755 -0.05518989 -0.026828326 -0.046574283 0.033883296 0.0021018586 0.027394636
0.017449738 -0.06289664 0.038813535 -0.05847275 -0.04103406 -0.007526479 -0.04369476 -0.0037883753
-0.037670527 -0.040267967 0.031130694 -0.0024488282 -0.04272302 -0.0067145634 0.037452664 -0.03800383
0.034469448 0.03218191 -0.010295887 0.056166954 0.053121448 0.006004411 0.055136316 0.031803284
-0.05937703 0.026600132 0.0033335884 0.0067279246 0.03282201 -0.019587362 0.010563098 0.050568637
0.021862108 -0.058123834 0.022992574 -0.0030598685 0.02652395 0.005580187 0.058908474 0.04541735
-0.031356927 -0.0031026606 0.03385491 -0.024163544 0.02342015 0.037891276 0.0098587675 -0.05955519
-0.008297208 -0.003292425 -0.025318239 0.032686237 0.049574926 0.03714027 -0.0034964245 -0.055116605
-0.0336846 -0.033445824 0.039222393 -0.044562068 0.00066067494 -0.017004058 -0.053450543 0.055035874
0.026055459 0.02502744 0.050166123 0.06240426 0.0605474 0.03233693 0.045393046 0.025557091
-0.048936103 -0.024990767 0.0013182263 0.028045015 0.022670303 0.026512092 -0.014910656 -0.055163875
-0.0013158406 0.032773465 0.03406733 0.0072406493 -0.03023082 -0.031535007 -0.0074893795 -0.018771958
-0.03150435 0.031535845 0.022848947 -0.021330938 -0.020734424 0.02421533 0.005600447 0.008450148
-0.025771022 -0.014207301 0.014387688 0.051672183 0.0066618375 0.056285366 0.016925843 0.053838566
-0.0008184368 -0.023463981 0.050222754 0.0047988473 -0.017569635 -0.04847916 -0.0044368906 0.031906884
-0.003133691 0.034708392 -0.025234248 0.0114482725 -0.015180961 -0.03969197 -0.00288317 0.020430975
00000000: cca5 b4bc b965 4c3b 9d29 813c 8b4b 2a3d
00000010: 994f 85bc c018 52bb edf4 863b af41 143d
00000020: e5be e83c 02d5 47bd fda6 d9bc 4af4 6fbd
00000030: a153 753b 1678 8e3c ce16 603c 1a3f 9c3c
00000040: d35e 22bc c69e ab39 e2b1 93bb dee5 813c
00000050: f5fb 5f3d b278 32bd 2621 843d 1a0b 753d
00000060: f73c bfbc 2335 733c bbb7 e63c 12e9 503d
00000070: b474 633d 71e9 2ebd 079a 853d c345 1c3d
00000080: d8c9 40bd e7c4 f3bc 6f80 123d 68f2 383d
00000090: 8fe8 0d3d 8880 10bd 0f44 9abc 0c05 2ab9
000000a0: 3786 4bbd ae28 d7bb 71e1 5dbc 8816 d83c
000000b0: 7279 ff3c a6e0 e23c 4419 073d 463e 2d3d
000000c0: e7d7 45bd 0420 cabc 5b11 2dbd 5ce5 0ebd
000000d0: 2883 d1bc 2fea 00bd f301 db3c e83f 56bd
000000e0: b77c ed3c 4e2c 26bd 3ac1 013d cc4e 753d
000000f0: 4169 b03c abaa 8c3d 77a2 863d eef3 7abc
00000100: ce51 0fbc 9e4f 43bd dd42 803c a6a1 17bd
00000110: 7413 ba3c ce66 c3bb 0ce4 82bd 6f13 3b3c
00000120: eb77 3f3d 38c6 4abb faf5 66bd 1e15 6f3c
00000130: af84 b6bc 604f 533c 162a 363c ab05 60bc
00000140: 440c e03c 49e7 b2bc 5018 65bd f937 e5bc
00000150: c5c1 9fbc 3480 42bd 5d0c 03bd 61f1 1dbd
00000160: 6605 bebb 0f15 d63c e9a5 bcbc d397 c7bc
00000170: a164 dc3b 0c9f 05bd 889a 24bb 0afd 6f3c
00000180: 602a e23c 0fb5 e2bb 13f0 6c3d 4d51 58bd
00000190: 80a7 1b3c 67f0 ab3b b357 ff3c 11fa 70bd
000001a0: e9ec 72bd 2de6 8abb 8a21 7fbd 9101 27bd
000001b0: ab5a 2b3c 00ee e4bc 9aab cc3c 634c 01bb
000001c0: 0acb 68bd 66fa 5b3c 1533 dfbc bcb4 1abd
000001d0: a412 90bc 3d19 48bd acd3 9fbc 588f 58bc
000001e0: 9813 58bd 59bb f639 a4b8 98bc d355 42bd
000001f0: e241 77bc ea8c c1bc 3616 58bb d251 3f3d
00000200: cf03 e5bc 0a8d 10bd cb0e 62bd 14c7 dbbc
00000210: adc4 3ebd 36c9 0a3d 56bf 093b b76a e03c
00000220: c1f2 8e3c f4cf 80bd f1fa 1e3d 1f81 6fbd
00000230: 5513 28bd afa0 f6bb 47f9 32bd 6446 78bb
00000240: 694c 1abd 06f0 24bd cc05 ff3c 857c 20bb
00000250: 55fe 2ebd d705 dcbb f767 193d e7a9 1bbd
00000260: d62f 0d3d 2ed1 033d 14b0 28bc 520f 663d
00000270: e095 593d a6c0 c43b 9ed6 613d 2944 023d
00000280: 5435 73bd 85e8 d93c 5578 5a3b ec75 dc3b
00000290: 5f70 063d ad75 a0bc d810 2d3c 0f21 4f3d
000002a0: 2a18 b33c 4213 6ebd ec5a bc3c 1388 48bb
000002b0: c148 d93c 00da b63b 034a 713d 8b07 3a3d
000002c0: 1f70 00bd 0256 4bbb 72ab 0a3d a0f2 c5bc
000002d0: 9ddb bf3c e233 1b3d ab86 213c 25f0 73bd
000002e0: 03f1 07bc bac5 57bb 3268 cfbc 01e2 053d
000002f0: 140f 4b3d 6520 183d 4524 65bb f3c1 61bd
00000300: ddf8 09bd 7dfe 08bd a9a7 203d b786 36bd
00000310: 2531 2d3a 184c 8bbc f5ee 5abd 4c6d 613d
00000320: 4272 d53c 5906 cd3c fe7a 4d3d 9c9b 7f3d
00000330: 8d00 783d bb73 043d 0fee 393d 1b5d d13c
00000340: 3971 48bd 70b9 ccbc 56c8 ac3a a9be e53c
00000350: 12b7 b93c e32f d93c d34b 74bc 84f3 61bd
00000360: 4978 acba 783d 063d 2f8a 0b3d f842 ed3b
00000370: a0a6 f7bc da2a 01bd 7869 f5bb a6c7 99bc
00000380: b50a 01bd bb2b 013d b72d bb3c 38be aebc
00000390: 3ddb a9bc 3a5f c63c f483 b73b 7d72 0a3c
000003a0: c01d d3bc bdc5 68bc 56ba 6b3c 36a6 533d
000003b0: 8b4b da3b 7c8b 663d 11a8 8a3c d485 5c3d
000003c0: 5d8c 56ba 8937 c0bc 60b6 4d3d a63f 9d3b
000003d0: 32ee 8fbc 1592 46bd 5663 91bb cbb0 023d
000003e0: 9c5e 4dbb 632a 0e3d 0eb8 cebc 8991 3b3c
000003f0: 91b9 78bc 0c94 22bd 91f3 3cbb dc5e a73c

feature_extractor.4.bn1.weight f4 [32]
0.9969479 1.0004699 1.0010474 1.0005985 0.99493146 1.0134661 0.995631 1.0058069
1.0025759 1.000413 1.0007839 1.0020278 1.0035969 1.0015498 0.9848746 0.9962452
0.98694813 1.0034472 1.0089524 0.99508816 0.99428636 0.98490936 1.0089551 1.0013627
1.0088031 1.0018215 0.9914351 0.9913313 1.0063294 1.0064696 1.0033641 0.9939496
00000000: fa37 7f3f 660f 803f 5222 803f 9d13 803f
00000010: d4b3 7e3f 42b9 813f ace1 7e3f 48be 803f
00000020: 6854 803f 880d 803f b019 803f 7242 803f
00000030: dd75 803f c932 803f be20 7c3f ed09 7f3f
00000040: a2a8 7c3f f570 803f 5a25 813f 19be 7e3f
00000050: 8d89 7e3f 0523 7c3f 7125 813f a72c 803f
00000060: 7620 813f b03b 803f b1ce 7d3f e3c7 7d3f
00000070: 67cf 803f ffd3 803f 3c6e 803f 7b73 7e3f

feature_extractor.4.bn1.bias f4 [32]
0.0050742626 0.0021723213 -0.0039375448 -0.0043648602 -0.022567436 0.009306561 -0.0015148807 0.003261078
-0.012834254 0.0058272397 0.0052150474 -0.009448034 9.6474556e-05 0.0038666066 -0.009395816 -0.0023548934
-0.012016497 -0.01987655 0.0022354752 0.0044026575 -0.0033168523 -0.01696422 -0.004440195 0.0018829866
0.016520388 -0.006511893 -0.0042607863 0.0043456433 -0.0021581117 0.010139293 0.007129348 0.0029613688
00000000: 0046 a63b 815d 0e3b 8506 81bb 1a07 8fbb
00000010: 58df b8bc 8c7a 183c f68e c6ba cfb7 553b
00000020: c346 52bc 6ef2 be3b fde2 aa3b edcb 1abc
00000030: 6252 ca38 e566 7d3b e9f0 19bc 8e54 1abb
00000040: d7e0 44bc 26d4 a2bc 0d81 123b 2b44 903b
00000050: 8c5f 59bb 8cf8 8abc 0e7f 91bb 8cce f63a
00000060: c455 873c b861 d5bb 119e 8bbb e665 8e3b
00000070: 1b6f 0dbb 471f 263c 4e9d e93b 8613 423b

feature_extractor.4.bn1.running_mean f4 [32]
-0.0503381 0.1302364 -0.5916124 -0.5520751 -0.71212924 0.25491846 0.37806764 0.47364548
-0.06505281 0.5324353 0.60518783 0.35052985 0.2465778 -0.99991316 -0.028569464 -0.38723958
-0.5221247 0.123462066 0.058918025 -0.21937728 0.027312731 0.16494347 -0.5850427 0.09233852
-0.17681994 0.31229815 -0.27252802 0.20996009 -0.014268431 -0.19224486 0.5574651 0.7586922
00000000: 532f 4ebd b15c 053e e973 17bf cb54 0dbf
00000010: 1a4e 36bf ac84 823e 1592 c13e a981 f23e
00000020: 683a 85bd ae4d 083f 97ed 1a3f a678 b33e
00000030: e47e 7c3e 4ffa 7fbf 820a eabc 4444 c6be
00000040: f7a9 05bf aed9 fc3d 0754 713d 70a4 60be
00000050: f3be df3c f1e6 283e 5cc5 15bf fa1b bd3d
00000060: 4910 35be 8be5 9f3e cb88 8bbe c7ff 563e
00000070: 23c6 69bc d6db 44be 08b6 0e3f a739 423f

feature_extractor.4.bn1.running_var f4 [32]
0.6200464 0.29235762 0.22253957 0.26010883 0.23075503 0.21809612 0.35152397 0.4720268
0.19802716 0.213976 0.3434029 0.27216572 0.3163311 0.4843983 0.54495084 0.28832105
0.3391615 0.22250833 0.10738641 0.2642524 0.44103548 0.15386876 0.13491845 0.46114796
0.354515 0.34286663 0.62480193 0.33675128 0.11281042 0.34773552 0.38601625 0.35424826
00000000: 5cbb 1e3f e6af 953e 6ae1 633e fc2c 853e
00000010: 0c4b 6c3e 9754 5f3e f3fa b33e 7fad f13e
00000020: a2c7 4a3e 861c 5b3e 81d2 af3e 4e59 8b3e
00000030: 26f6 a13e 0e03 f83e e681 0b3f d19e 933e
00000040: 93a6 ad3e 39d9 633e 68ed db3d 174c 873e
00000050: 67cf e13e c68f 1d3e 1028 0a3e 961b ec3e
00000060: fd82 b53e 378c af3e 05f3 1f3f aa6a ac3e
00000070: 2609 e73d 640a b23e eca3 c53e 0760 b53e

feature_extractor.4.conv2.weight f4 [32, 32, 3, 3]
-0.039462827 0.01955548 0.025031283 -0.034720525 -0.01239987 0.04923064 -0.024379969 -0.044504147
-0.0002570283 0.00018990842 -0.024911148 0.045837462 -0.055811934 -0.011342383 -0.03196191 -0.0021055932
0.017887687 0.03947076 0.023936491 0.041082382 -0.033224776 -0.019156676 -0.027375875 0.042542156
-0.015436562 -0.07513871 0.027006714 0.049105775 0.014553149 -0.013917329 0.015603994 0.03882126
0.0549534 0.0037156108 -0.061769105 -0.040873405 0.0015672519 0.037913952 0.031517837 -0.013076307
-0.0005668236 -0.010773911 0.038929764 0.040689293 0.0015424202 0.0007961733 0.008072062 0.040675387
-0.053139053 0.033611532 -0.032468185 -0.02601941 0.03181422 -0.034594867 -0.048279423 0.011518228
-0.010291865 0.014296145 0.06037476 -0.018831886 -0.0037006403 0.051607676 -0.0064645717 -0.067526795
-0.017755132 0.014222132 0.049063545 -0.016230145 0.0112290345 0.018299682 -0.053839218 -0.010824063
-0.05784359 0.006891136 0.026889546 -0.033550385 -0.008854874 -0.021009224 -0.057980735 0.008735156
0.006106139 -0.053409517 -0.0018854723 0.053594667 0.03649009 -0.049179997 -0.054201055 0.0030607895
0.04251584 -0.053387776 0.018262161 -0.05901625 -0.03907664 -0.039785415 0.003777491 -0.005705953
-0.022331787 -0.039455947 -0.010896323 -0.036403533 0.03539648 0.038634624 -0.01388113 -0.022584926
-0.059344172 -0.013166081 -0.05665369 0.003466215 0.021373305 0.038780976 -0.0018548315 0.0053077093
-0.009827954 -0.062497277 -0.009021596 -0.026067002 -0.047506373 0.04183185 -0.027643494 0.030026145
-0.06502147 0.041278962 -0.02635865 -0.06582855 -0.05210513 -0.034138136 0.0013594684 0.046627156
0.034334328 -0.049062375 -0.016544709 -0.0067306715 -0.017348131 -0.05631252 -0.0061273677 0.009129614
0.03679984 -0.015810875 -0.013954784 0.025111895 -0.05108911 -0.013172181 0.043340385 0.0031798382
0.04416197 0.030178094 -0.041338015 0.027989175 -0.039439734 -0.049424104 0.009928046 0.00015985666
0.034256987 0.04943546 -0.026944196 0.0010662866 0.019180609 -0.012147497 0.008622759 0.011106654
-0.030224146 0.015598894 -0.0003475795 -0.019611495 -0.061358187 0.030690994 -0.047607757 -0.059767295
-0.06525039 0.007944175 -0.021539 -0.027914146 -0.008206669 -0.04422277 -0.041159444 0.04133857
0.04453044 -0.0065244464 0.023794137 0.063584454 -0.03079627 0.056545675 -0.044499826 0.017301966
-0.02809773 -0.04074766 0.017893968 -0.033235043 -0.034275204 0.028080015 -0.038113385 -0.01238213
-0.027693449 -0.049818695 -0.022349808 0.033746317 0.010892682 -0.002396208 -0.023648487 -0.056576356
0.011854872 0.009590837 -0.0054012598 0.01072608 0.033523403 0.047518313 0.022696916 0.020290975
-0.0061382377 -0.027658213 -0.0556015 0.032076623 0.037711374 0.0034408306 -0.04690452 0.041067045
-0.0013337944 -0.04028931 -0.015383654 0.048832852 -0.042253368 -0.05641165 0.02356804 5.1127565e-05
0.010755963 0.017280567 0.0009336276 0.05867681 0.01844988 0.019469595 0.055160772 -0.013914686
0.04168245 -0.040043417 0.051961653 -0.0026322526 -0.00525492 -0.03563635 -0.0474818 -0.01268534
-0.03552827 -0.040905893 -0.0052422504 0.03505606 0.010233523 -0.051726762 -0.0034896056 0.013740912
-0.0018079429 -0.009729866 -0.047834937 0.050988823 -0.030313354 0.0497114 0.034802947 0.036632877
00000000: c6a3 21bd d032 a03c 680e cd3c 1c37 0ebd
00000010: d328 4bbc 11a6 493d 80b8 c7bc fb49 36bd
00000020: c1c1 86b9 2722 4739 7712 ccbc 10c0 3b3d
00000030: 0e9b 64bd 67d5 39bc 7eea 02bd fefd 09bb
00000040: 3389 923c 17ac 213d 7616 c43c 0046 283d
00000050: b416 08bd 76ee 9cbc 5f43 e0bc af40 2e3d
00000060: a2e9 7cbc 53e2 99bd 2f3d dd3c 2323 493d
00000070: 5570 6e3c 8205 64bc e5a7 7f3c 0b03 1f3d
00000080: d116 613d 9b81 733b 9a01 7dbd df6a 27bd
00000090: 3f6c cd3a a94b 1b3d d918 013d 023e 56bc
000000a0: e396 14ba 0f85 30bc d174 1f3d d1a9 263d
000000b0: 092b ca3a 49b6 503a af40 043c 3c9b 263d
000000c0: 56a8 59bd 3fac 093d 5cfd 04bd a826 d5bc
000000d0: a14f 023d 59b3 0dbd a5c0 45bd f3b6 3c3c
000000e0: 369f 28bc 613a 6a3c 864b 773d 5445 9abc
000000f0: 7186 72bb 9262 533d c2d4 d3bb 7d4b 8abd
00000100: 3673 91bc f203 693c dbf6 483d 15f5 84bc
00000110: fcf9 373c 37e9 953c 8386 5cbd 6957 31bc
00000120: 66ed 6cbd 0acf e13b 7747 dc3c 216c 09bd
00000130: 0914 11bc 891b acbc 357d 6dbd e61d 0f3c
00000140: 0216 c83b f0c3 5abd f421 f7ba 1586 5b3d
00000150: a276 153d f770 49bd ed01 5ebd 8797 483b
00000160: 1725 2e3d 24ad 5abd 879a 953c 06bb 71bd
00000170: d40e 20bd 08f6 22bd c88f 773b 01f9 babb
00000180: 27f1 b6bc 8f9c 21bd 7e86 32bc df1b 15bd
00000190: e6fb 103d 573f 1e3d ae6d 63bc 0604 b9bc
000001a0: e012 73bd 8cb6 57bc b30d 68bd 7029 633b
000001b0: 1217 af3c cdd8 1e3d d11d f3ba 4bec ad3b
000001c0: 6d05 21bc 25fd 7fbd 51cf 13bc 778a d5bc
000001d0: 0b96 42bd e057 2b3d 9c74 e2bc 64f9 f53c
000001e0: fa29 85bd 2114 293d 18ee d7bc 1ed1 86bd
000001f0: 306c 55bd 6ed4 0bbd 3130 b23a 1efc 3e3d
00000200: 27a2 0c3d a1f5 48bd c588 87bc f78c dcbb
00000210: ab1d 8ebc f5a7 66bd 16c8 c8bb 6094 153c
00000220: 6ebb 163d cf85 81bc 9ba2 64bc 76b7 cd3c
00000230: d142 51bd 22d0 57bc b085 313d d564 503b
00000240: 2fe3 343d 0d38 f73c 0d52 29bd 8e49 e53c
00000250: 8f8b 21bd ee70 4abd 3ea9 223c 329f 2739
00000260: 0e51 0c3d d67c 4a3d 13ba dcbc a4c2 8b3a
00000270: a720 9d3c 4c06 47bc 7946 0d3c aff8 353c
00000280: a198 f7bc 8192 7f3c 553b b6b9 49a8 a0bc
00000290: b952 7bbd ae6b fb3c 5a00 43bd 8dce 74bd
000002a0: ffa1 85bd 4928 023c 8f72 b0bc 35ac e4bc
000002b0: 4475 06bc ef22 35bd ce96 28bd a252 293d
000002c0: 8d65 363d 06cb d5bb eceb c23c 9138 823d
000002d0: 7648 fcbc 709c 673d 7345 36bd dabc 8d3c
000002e0: 362d e6bc 05e7 26bd 5f96 923c 7821 08bd
000002f0: 2864 0cbd 0f08 e63c c81c 1cbd 6bde 4abc
00000300: 5fdd e2bc b00e 4cbd f216 b7bc 9439 0a3d
00000310: 3877 323c b309 1dbb 79ba c1bc 9cbc 67bd
00000320: f03a 423c e322 1d3c 0dfd b0bb 71bc 2f3c
00000330: d64f 093d 90a2 423d e2ee b93c 4239 a63c
00000340: 4523 c9bb 7a93 e2bc 66be 63bd c762 033d
00000350: 3e77 1a3d 8f7f 613b f41e 40bd eb35 283d
00000360: b7d2 aeba 6706 25bd b90b 7cbc f504 483d
00000370: de11 2dbd e70f 67bd c311 c13c ce71 5638
00000380: c739 303c fa8f 8d3c b0be 743a 1857 703d
00000390: 3424 973c b37e 9f3c 43f0 613d 6cfa 63bc
000003a0: 37bb 2a3d 9104 24bd bed5 543d df81 2cbb
000003b0: 7731 acbb 6cf7 11bd 477c 42bd 2cd6 4fbc
000003c0: 1786 11bd f08c 27bd 2fc7 abbb f196 0f3d
000003d0: 82aa 273c 71df 53bd deb1 64bb 9021 613c
000003e0: 7ff8 ecba 046a 1fbc 91ee 43bd a8d9 503d
000003f0: b653 f8bc 2e9e 4b3d 898d 0e3d 5b0c 163d

feature_extractor.4.bn2.weight f4 [32]
1.0030915 0.99957854 0.99933815 0.9995223 1.004961 0.98645926 1.004456 0.9942493
0.9974541 0.9996383 0.999266 0.998015 0.99648726 0.998528 1.0150791 1.0038403
1.0131342 0.9965439 0.9911762 1.0049604 1.0058131 1.0149393 0.99112207 0.9986965
0.9911391 0.9982311 1.008557 1.0087172 0.99380136 0.9935801 0.99669033 1.0060704
00000000: 4d65 803f 61e4 7f3f a0d4 7f3f b2e0 7f3f
00000010: 90a2 803f 9888 7c3f 0492 803f 1f87 7e3f
00000020: 2759 7f3f 4ce8 7f3f e6cf 7f3f e97d 7f3f
00000030: ca19 7f3f 889f 7f3f 1dee 813f d77d 803f
00000040: 62ae 813f 801d 7f3f b9bd 7d3f 8ba2 803f
00000050: 7cbe 803f 88e9 813f 2dba 7d3f 93aa 7f3f
00000060: 4bbb 7d3f 138c 7f3f 6518 813f a51d 813f
00000070: c469 7e3f 445b 7e3f 1927 7f3f eac6 803f

feature_extractor.4.bn2.bias f4 [32]
0.00026227278 -0.006947163 -0.0009104587 -0.0070190825 -0.0018809668 -0.004060118 0.00023313583 -0.001187654
-0.0047651236 0.0057594897 -0.0016425856 0.007822383 -0.005541343 -0.0031024965 0.002988776 0.0042907028
-0.0016210808 -0.0014229125 -0.004247341 0.0044986703 -0.003455716 0.0008195229 -0.004355456 -0.0045917425
-0.00900186 -0.0010632732 -0.003400504 -0.0044099265 0.0044765873 0.004319938 0.0030191394 -0.007972606
00000000: a881 8939 07a5 e3bb d9ab 6eba 5500 e6bb
00000010: c68a f6ba bd0a 85bb ec75 7439 0eab 9bba
00000020: c124 9cbb 1aba bc3b 074c d7ba 7429 003c
00000030: 2794 b5bb 4153 4bbb 57df 433b 0699 8c3b
00000040: 727a d4ba 0581 baba 472d 8bbb 9569 933b
00000050: 4b79 62bb 40d5 563a 37b8 8ebb 5476 96bb
00000060: 8a7c 13bc 875d 8bba fdda 5ebb 2581 90bb
00000070: 56b0 923b 448e 8d3b c1dc 453b 899f 02bc

feature_extractor.4.bn2.running_mean f4 [32]
-0.56596285 -0.07266082 0.35020408 -0.39572784 -0.31250137 -0.049434964 0.3921741 0.71795154
0.3021989 -0.038353227 0.33209962 0.43572018 0.0774011 0.08496657 0.04927139 -0.37153995
0.24679844 0.47680846 -0.88180864 0.14557356 0.45789942 -0.29445907 -0.5187898 0.013052379
-0.1696709 0.42686966 -1.014715 -0.10668444 0.1898388 0.2259672 -0.5741855 0.5328581
00000000: f1e2 10bf 32cf 94bd f34d b33e d79c cabe
00000010: 2e00 a0be 517c 4abd 0bcb c83e accb 373f
00000020: d0b9 9a3e 4618 1dbd f608 aa3e b716 df3e
00000030: 7884 9e3d f402 ae3d ccd0 493d 7c3a bebe
00000040: bbb8 7c3e 3d20 f43e 36be 61bf 3c11 153e
00000050: cb71 ea3e 57c3 96be 69cf 04bf a5d9 553c
00000060: 35be 2dbe a98e da3e 2ee2 81bf 5f7d dabd
00000070: 1a65 423e f263 673e d2fd 12bf 6369 083f

feature_extractor.4.bn2.running_var f4 [32]
0.3105562 0.3919434 0.3097231 0.26763728 0.25692743 0.38722456 0.4694452 0.5373769
0.31051803 0.34985325 0.25981694 0.26032874 0.21114004 0.5482076 0.2588354 0.43726814
0.29204208 0.1704485 0.5473269 0.27043852 0.27429986 0.215436 0.21827501 0.3458017
0.42883077 0.2808736 0.37366244 0.5001072 0.28069863 0.41644105 0.20274504 0.34674543
00000000: 3901 9f3e ceac c83e 0794 9e3e c107 893e
00000010: fe8b 833e 4c42 c63e 1f5b f03e 8891 093f
00000020: 38fc 9e3e f71f b33e ba06 853e cf49 853e
00000030: 1835 583e 5557 0c3f 1386 843e 9ce1 df3e
00000040: 8a86 953e 0d8a 2e3e 9e1d 0c3f eb76 8a3e
00000050: 0871 8c3e 419b 5c3e 7c83 5f3e ec0c b13e
00000060: b58f db3e aace 8f3e af50 bf3e 0707 003f
00000070: bbb7 8f3e c337 d53e 659c 4f3e 9e88 b13e

feature_extractor.5.weight f4 [32]
0.99049264 1.0113736 0.9852864 0.97433466 1.0036122 0.99939245 0.9944173 1.0152277
1.0101001 0.9920089 0.9781487 1.0125105 1.0044897 1.0020944 1.0010515 0.99612904
0.9702533 0.99811924 1.0020918 1.0009216 1.0035456 0.98813444 1.0016004 1.0003519
1.0049869 1.0420334 0.99455196 1.0027695 1.0057148 1.012514 0.99916285 1.0089711
00000000: ed90 7d3f b174 813f bb3b 7c3f ff6d 793f
00000010: 5d76 803f 2fd8 7f3f 2292 7e3f fbf2 813f
00000020: f64a 813f 4cf4 7d3f f467 7a3f f299 813f
00000030: 1e93 803f a144 803f 7522 803f 5002 7f3f
00000040: 8562 783f be84 7f3f 8b44 803f 331e 803f
00000050: 2f74 803f 61f6 7c3f 7134 803f 880b 803f
00000060: 69a3 803f 5a61 853f f59a 7e3f c05a 803f
00000070: 43bb 803f 0f9a 813f 23c9 7f3f f725 813f

feature_extractor.5.bias f4 [32]
-0.0089528 0.003345019 -0.013622503 -0.02103823 -0.0016524753 -0.001444278 0.009728483 0.005427307
0.0013957722 -0.0013233831 -0.017430786 -0.0009181626 0.0034781194 0.0021610009 0.0031880166 -0.009444218
-0.013814163 -0.006310827 0.00067972264 -0.00916754 0.010800353 -0.007048582 -0.00563335 0.0025273187
-0.00728164 0.011933228 0.0028522008 0.009350824 -6.298845e-05 -0.0049871774 3.9219958e-05 -0.0004536706
00000000: c4ae 12bc 1b38 5b3b eb30 5fbc 5e58 acbc
00000010: df97 d8ba ee4d bdba 3764 1f3c 8dd7 b13b
00000020: 58f2 b63a 5e75 adba 02cb 8ebc d9b0 70ba
00000030: 29f1 633b 949f 0d3b 0bee 503b ecbb 1abc
00000040: cd54 62bc 0ecb cebb 6a2f 323a 7333 16bc
00000050: f7f3 303c cbf7 e6bb f797 b8bb 5fa1 253b
00000060: d39a eebb 9683 433c fdeb 3a3b 3334 193c
00000070: ab18 84b8 7a6b a3bb 1c80 2438 a3da edb9

feature_extractor.5.running_mean f4 [32]
0.43751183 0.35773095 0.39296654 0.4305933 0.41691232 0.38178623 0.43787092 0.4502453
0.42910737 0.42391476 0.3122756 0.43176284 0.35590905 0.3984192 0.43512714 0.44547305
0.36452112 0.438005 0.3497927 0.3793761 0.42155278 0.40470922 0.38954782 0.4186234
0.44074148 0.3563915 0.43716544 0.4358634 0.37036166 0.46239254 0.45255065 0.4186033
00000000: 8d01 e03e 8328 b73e e932 c93e ba76 dc3e
00000010: 8875 d53e 7c79 c33e 9e30 e03e 8d86 e63e
00000020: f6b3 db3e 5b0b d93e 96e2 9f3e 0510 dd3e
00000030: b639 b63e 9afd cb3e fcc8 de3e 0b15 e43e
00000040: 83a2 ba3e 3142 e03e 0718 b33e 963d c23e
00000050: c4d5 d73e 0c36 cf3e d072 c73e ce55 d63e
00000060: dea8 e13e f278 b63e 26d4 df3e 7d29 df3e
00000070: 0ba0 bd3e b7be ec3e b8b4 e73e 2c53 d63e

feature_extractor.5.running_var f4 [32]
1.947552 2.3229156 1.2010864 1.831418 1.8880355 2.0458682 2.5118945 2.6056833
2.108011 1.4152931 2.8018346 2.3792195 2.6961484 1.5419793 2.4519503 2.0272455
1.00509 1.5618643 1.817686 2.4939783 1.5827935 2.1436546 1.7988523 2.3169801
1.8007015 2.031517 1.5181293 2.6049078 1.3088932 1.8791679 1.047357 2.676395
00000000: 6249 f93f a6aa 1440 33bd 993f e86b ea3f
00000010: 26ab f13f 81ef 0240 e1c2 2040 84c3 2640
00000020: a7e9 0640 5328 b53f 4251 3340 2245 1840
00000030: b28d 2c40 945f c53f c1ec 1c40 64be 0140
00000040: caa6 803f 2beb c73f efa9 e83f 579d 1f40
00000050: fa98 ca3f a331 0940 cb40 e63f 6749 1440
00000060: 637d e63f 6004 0240 1052 c23f cfb6 2640
00000070: d089 a73f 9388 f03f cb0f 863f 0e4a 2b40

feature_extractor.7.conv1.weight f4 [64, 32, 3, 3]
-0.053392015 -0.0148539785 -0.014835403 -0.034276355 0.039180763 0.039879557 0.011708951 0.008847411
0.052350126 -0.019513816 -0.059060607 0.032130234 -0.008285881 0.017890126 -0.022831418 -0.05361221
-0.03371882 -0.060119245 0.030426309 -0.03953866 0.035556845 0.02876531 0.050470408 0.0043072435
-0.00045315013 0.007969533 0.027250024 0.03924766 -0.008027591 0.04097151 -0.05794723 0.011241045
0.03795264 -0.01745826 0.027050762 -0.010483523 -0.05120046 0.014041221 0.017598541 0.012488419
-0.014033271 0.04247017 0.020346994 -0.042652152 0.0702297 -0.04726878 -0.002246706 0.016588485
0.019022565 -0.0071977633 -0.02264421 -0.001946337 -0.043361597 -0.028892262 0.051503215 0.02438211
-0.054609142 -0.05198163 0.044892572 -0.029412465 -0.040884458 0.013680965 0.04069255 -0.02802229
-0.015899118 -0.06464126 0.009692535 0.022907982 0.038697205 0.010771081 -0.020273594 -0.0071964758
0.04995021 0.02887343 0.015960846 0.012025324 -0.0032821835 -0.05424148 0.027625144 -0.046360917
-0.02099 -0.035133697 0.029275239 0.04564529 -0.04524061 -0.058552444 0.035765193 -0.023976425
0.050570905 0.023960344 -0.03824716 -0.045873582 0.01925977 -0.010960476 -0.0014344245 -0.034172565
-0.047138065 -0.04656244 -0.0006425842 -0.050970856 -0.0403497 -0.007312824 0.047820494 -0.05468331
-0.060174793 0.03594134 -0.04885309 -0.033692252 -0.043039743 -0.0077706454 -0.06090032 0.02209214
-0.009733736 -0.042316727 0.020397466 -0.06088619 0.01195029 0.005971043 -0.043262057 0.0036807794
-0.012006112 -0.060552556 0.0017954567 0.049832366 -0.0037103253 -0.03200758 0.023938814 0.008641797
-0.07566788 0.0075148093 -0.05948556 -0.00042084605 -0.012036892 -0.017971115 -0.035970666 -0.058465805
-0.050952747 0.035514638 -0.04166852 0.04629072 0.040104263 0.042708497 -0.030397905 0.022155883
0.007920794 -0.009029936 -0.010749243 -0.05199514 0.008531432 -0.004910924 0.0057612997 0.051018056
-0.029300218 0.040571615 0.0119069405 -0.04011275 -0.03645447 0.03867486 0.0024175972 -0.038320236
0.044808265 0.017847039 0.04685821 0.02613774 -0.050768897 -0.01450155 -0.03622204 -0.06953494
0.013973227 -0.044825204 -0.05290173 -0.03419271 -0.04295791 -0.013491751 0.0013809683 -0.05654691
-0.012769883 -0.00847695 0.019511944 -0.026857859 0.033381257 0.02676907 0.031627875 0.023900915
0.00166279 -0.03541891 0.0438447 -0.0077141477 0.029537784 0.015330893 -0.058693107 0.012719793
-0.038002133 -0.023554241 -0.038277373 0.04014513 -0.012282888 0.009468183 0.010630108 -0.022613266
-0.027707607 0.02368513 -0.04628108 0.029435929 -0.010648845 -0.012632673 -0.015640857 -0.05420437
0.041341837 0.038313 -0.057980854 0.031112464 0.022269033 -0.005306648 0.032761432 -0.059726708
0.04832099 -0.02663336 0.02998436 0.0023772412 0.009984311 0.049151443 -0.05216301 0.051555954
-0.03331151 -0.011641735 0.061896563 0.01802131 -0.019009812 -0.014819629 -0.05419684 -0.027827468
0.04404972 0.011251374 0.001031254 -0.04527241 0.062981404 -0.009099063 0.031988446 0.040618256
-0.058968496 0.03402723 0.046292156 -0.0086020455 -0.043815643 -0.051141858 -0.037825987 0.046070598
-0.056177802 -0.068367496 0.0052082962 -0.035940763 -0.04525591 0.039742216 0.047168277 0.013007396
00000000: 96b1 5abd 1a5e 73bc 3110 73bc 5d65 0cbd
00000010: 027c 203d bf58 233d e6d6 3f3c bbf4 103c
00000020: 166d 563d 70db 9fbc 89e9 71bd fe9a 033d
00000030: 81c1 07bc 508e 923c f408 bbbc 7a98 5bbd
00000040: bf1c 0abd 993f 76bd 9840 f93c 4af3 21bd
00000050: 0ea4 113d 3aa5 eb3c 0fba 4e3d c723 8d3b
00000060: c894 edb9 a592 023c 713b df3c 28c2 203d
00000070: 2886 03bc bed1 273d 135a 6dbd 5c2c 383c
00000080: 3a74 1b3d a004 8fbc 8f99 dd3c 15c3 2bbc
00000090: 93b7 51bd 260d 663c d12a 903c 3a9c 4c3c
000000a0: ceeb 65bc 33f5 2d3d bdae a63c 06b4 2ebd
000000b0: 97d4 8f3d e99c 41bd 793d 13bb 93e4 873c
000000c0: 36d5 9b3c 37db ebbb 5a80 b9bc 3c1c ffba
000000d0: ee9b 31bd 77af ecbc 09f5 523d febc c73c
000000e0: d6ad 5fbd b1ea 54bd 46e1 373d 69f2 f0bc
000000f0: 7676 27bd 2026 603c 3bad 263d 008f e5bc
00000100: de3e 82bc a362 84bd 70cd 1e3c 85a9 bb3c
00000110: f680 1e3d 3079 303c cf14 a6bc 6ad0 ebbb
00000120: 9798 4c3d f987 ec3c 52c0 823c dd05 453c
00000130: e719 57bb 502c 5ebd 204e e23c f2e4 3dbd
00000140: 38f3 abbc 5ae8 0fbd a0d2 ef3c 8ef6 3a3d
00000150: 384e 39bd b0d4 6fbd 867e 123d 356a c4bc
00000160: 7023 4f3d 7c48 c43c 0ea9 1cbd f0e5 3bbd
00000170: aac6 9d3c 9193 33bc 4d03 bcba 88f8 0bbd
00000180: d813 41bd 42b8 3ebd 1873 28ba d1c6 50bd
00000190: ba45 25bd 6aa0 efbb 6cdf 433d 9bfb 5fbd
000001a0: d879 76bd 3a37 133d 2d1a 48bd e300 0abd
000001b0: 714a 30bd e6a0 febb 9d72 79bd 93fa b43c
000001c0: 3f7a 1fbc 4e54 2dbd 9618 a73c cc63 79bd
000001d0: 26cb 433c bda8 c33b 8e33 31bd 3b39 713b
000001e0: 49b5 44bc f505 78bd 8855 eb3a 061d 4c3d
000001f0: ee28 73bb 611a 03bd 551b c43c 5396 0d3c
00000200: c3f7 9abd ca3e f63b 21a7 73bd 00a5 dcb9
00000210: 6236 45bc 2938 93bc fa55 13bd d779 6fbd
00000220: d4b3 50bd cc77 113d 9cac 2abd 579b 3d3d
00000230: 5e44 243d 1bef 2e3d 0705 f9bc 4180 b53c
00000240: 38c6 013c 4cf2 13bc 981d 30bc dbf8 54bd
00000250: 6bc7 0b3c d1eb a0bb 49c9 bc3b 4ff8 503d
00000260: 0307 f0bc 6c2e 263d 5415 433c 444d 24bd
00000270: 4851 15bd 8869 1e3d 8d70 1e3b aef5 1cbd
00000280: df88 373d f433 923c 65ee 3f3d d01e d63c
00000290: 0cf3 4fbd e997 6dbc 905d 14bd 5668 8ebd
000002a0: f6ef 643c a29a 37bd 7caf 58bd a80d 0cbd
000002b0: a2f4 2fbd 810c 5dbc 9b01 b53a bc9d 67bd
000002c0: c538 51bc e8e2 0abc 83d7 9f3c 0305 dcbc
000002d0: c9ba 083d cf4a db3c 3b8c 013d dacb c33c
000002e0: f9f1 d93a 6b13 11bd 8096 333d f6c6 fcbb
000002f0: 39f9 f13c 6d2e 7b3c 2f68 70bd ae66 503c
00000300: 20a8 1bbd d3f4 c0bc bcc8 1cbd 386f 243d
00000310: 2b3e 49bc 7020 1b3c e829 2e3c 753f b9bc
00000320: 10fb e2bc 5107 c23c 3b91 3dbd 9e23 f13c
00000330: 7e78 2ebc 45f9 4ebc 4121 80bc 6705 5ebd
00000340: 0f56 293d 18ee 1c3d 557d 6dbd 91df fe3c
00000350: 8c6d b63c 64e3 adbb da30 063d fea3 74bd
00000360: 3bec 453d 342e dabc c3a1 f53c 7dcb 1b3b
00000370: 3c95 233c 0653 493d e1a8 55bd 562c 533d
00000380: a671 08bd fabc 3ebc 4087 7d3d 6da1 933c
00000390: 77ba 9bbc 07ce 72bc 81fd 5dbd 6ef6 e3bc
000003a0: 7b6d 343d af57 383c 242b 873a 906f 39bd
000003b0: 65fc 803d 3d14 15bc 5106 033d 545f 263d
000003c0: f388 71bd 2360 0b3d d89c 3d3d 98ef 0cbc
000003d0: 0878 33bd 207a 51bd 6cef 1abd 86b4 3c3d
000003e0: b21a 66bd 4204 8cbd 5baa aa3b 9f36 13bd
000003f0: 435e 39bd bcc8 223d 8633 413d f91c 553c

feature_extractor.7.bn1.weight f4 [64]
0.9928402 0.9979046 1.0074304 1.0000572 1.0054718 1.0025717 1.0125563 0.99214965
1.0061231 1.0037942 1.0047023 0.99514043 0.9932199 0.9918771 0.9834468 0.9958783
0.9929058 1.012745 1.0072478 0.9959112 0.99785167 1.0039096 1.0002365 0.9945824
1.0087092 0.9948057 0.9927838 1.0041893 0.99971277 0.9879957 0.99089366 1.0063521
0.9999481 1.0134867 0.9761978 0.9940702 1.003397 1.002157 1.0093784 0.99438643
1.0079198 1.0068516 0.992736 1.0008616 0.9975324 1.0086528 0.98713046 0.9916988
1.0159868 0.9930935 1.0200849 1.0073694 1.0015455 1.0025798 0.9967803 1.006059
1.0166149 0.99412686 0.9809952 0.98531514 0.99746627 0.98740757 0.9898135 1.0092733
00000000: c62a 7e3f ad76 7f3f 7bf3 803f e001 803f
00000010: 4db3 803f 4554 803f 729b 813f 85fd 7d3f
00000020: a4c8 803f 547c 803f 169a 803f 86c1 7e3f
00000030: a943 7e3f a8eb 7d3f 2bc3 7b3f e1f1 7e3f
00000040: 132f 7e3f a1a1 813f 7fed 803f 09f4 7e3f
00000050: 3573 7f3f 1c80 803f c007 803f f49c 7e3f
00000060: 621d 813f 96ab 7e3f 1427 7e3f 4689 803f
00000070: 2ded 7f3f 49ed 7c3f 35ab 7d3f 25d0 803f
00000080: 99fc 7f3f efb9 813f 19e8 793f 627b 7e3f
00000090: 506f 803f ae46 803f 5033 813f 1c90 7e3f
000000a0: 8403 813f 83e0 803f f223 7e3f 3c1c 803f
000000b0: 495e 7f3f 891b 813f 95b4 7c3f f9df 7d3f
000000c0: db0b 823f 603b 7e3f 2492 823f 7bf1 803f
000000d0: a532 803f 8954 803f fe2c 7f3f 8bc6 803f
000000e0: 7020 823f 197f 7e3f 8022 7b3f 9d3d 7c3f
000000f0: f359 7f3f bec6 7c3f 6b64 7d3f de2f 813f

feature_extractor.7.bn1.bias f4 [64]
-0.00710325 0.0052690455 -0.00223751 0.009288477 0.0012008761 -0.0016142298 0.011822144 0.0036454115
0.003383815 0.0024354407 -0.010842535 0.01402476 -0.003862567 -0.0003559315 -0.020119663 0.0093864035
0.0053592008 0.0051398743 0.0031538454 -0.0007389594 0.0001506181 0.016123377 -0.006837518 0.018382736
0.011516995 0.00050049153 -0.009026409 0.0034406884 -0.011587686 -0.015932392 0.0056954455 0.010625488
-0.0016477423 0.0049566403 -0.03779657 0.002140474 0.0038118097 0.009877679 -0.0023911626 0.0021594136
0.017522026 0.00377139 -0.015872428 0.007837489 -0.007469943 0.010879314 -0.0025058994 -0.002507645
0.0032006858 -0.0026853825 -0.004080502 -0.008353313 0.004219289 -0.008185745 -0.007993377 -0.016395932
0.03302087 0.002916262 -0.01977859 -0.008238733 0.004984017 -0.005589043 0.018182369 -0.0035061499
00000000: 61c2 e8bb f5a7 ac3b 30a3 12bb b22e 183c
00000010: b766 9d3a 9094 d3ba aab1 413c dbe7 6e3b
00000020: ffc2 5d3b ea9b 1f3b e3a4 31bc 1bc8 653c
00000030: 1f23 7dbb 519c bab9 fed1 a4bc 6ec9 193c
00000040: 3c9c af3b 646c a83b bfb0 4e3b bab6 41ba
00000050: 3def 1d39 2c15 843c 420d e0bb 6497 963c
00000060: c7b1 3c3c 6b33 033a 81e3 13bc 2c7d 613b
00000070: 47da 3dbc a684 82bc dca0 ba3b 8716 2e3c
00000080: 0ff9 d7ba 506b a23b 94d0 1abd 3247 0c3b
00000090: 8ecf 793b fdd5 213c 0db5 1cbb f384 0d3b
000000a0: 5a8a 8f3c 6d29 773b e506 82bc d068 003c
000000b0: 6cc6 f4bb 263f 323c 043a 24bb 4d57 24bb
000000c0: 99c2 513b 3efd 2fbb bbb5 85bb 56dc 08bc
000000d0: f641 8a3b 811d 06bc a7f6 02bc c350 86bc
000000e0: e440 073d c21e 3f3b b606 a2bc c0fb 06bc
000000f0: f750 a33b 4a24 b7bb 31f3 943c 6fc7 65bb

feature_extractor.7.bn1.running_mean f4 [64]
-0.53040606 -0.3849671 -0.041713778 -0.20950712 0.5546101 0.03816054 0.54801655 -0.03439686
0.35808614 0.32858235 0.31139255 -0.594736 -0.27187183 -0.20764142 -0.2323732 -0.68609506
-0.17161317 0.6136315 0.08458536 0.40254673 0.39483175 -0.15621454 0.046251785 -0.18958284
-0.7215203 -0.9794956 0.4892057 0.27274957 -0.05124934 -0.6739788 -0.22800007 -0.06617946
-0.51986337 0.1905608 -0.28095686 0.031847384 -0.47827122 -0.13230796 -0.3366184 -0.29938385
0.30526727 0.43170494 -0.31894392 -0.36963534 -0.34435442 0.30461553 0.14353895 0.11413893
0.55216324 0.18080446 0.6149324 0.3052873 -0.27507645 -0.020544242 0.399565 0.56479925
-0.790125 0.070160605 -0.47309753 -0.06337247 0.2017848 -0.051603165 -0.15671068 0.10797329
00000000: b1c8 07bf 681a c5be 11dc 2abd 0989 56be
00000010: edfa 0d3f 3a4e 1c3d d04a 0c3f b9e3 0cbd
00000020: 1157 b73e f23b a83e d86e 9f3e 9e40 18bf
00000030: c932 8bbe f49f 54be 3df3 6dbe eda3 2fbf
00000040: 5dbb 2fbe f416 1d3f 173b ad3d 9b1a ce3e
00000050: 6327 ca3e b4f6 1fbe 8372 3d3d 0122 42be
00000060: 8eb5 38bf 39c0 7abf 2b79 fa3e d5a5 8b3e
00000070: d4ea 51bd e089 2cbf da78 69be 1989 87bd
00000080: c415 05bf 5f22 433e 94d9 8fbe 6772 023d
00000090: f7df f4be bd7b 07be 3f59 acbe d748 99be
000000a0: fe4b 9c3e 6e08 dd3e 9e4c a3be d840 bdbe
000000b0: 394f b0be 91f6 9b3e e0fb 123e acc1 e93d
000000c0: 925a 0d3f ce24 393e 366c 1d3f 9e4e 9c3e
000000d0: d2d6 8cbe 664c a8bc c993 cc3e af96 103f
000000e0: a245 4abf 5db0 8f3d d739 f2be 6dc9 81bd
000000f0: ada0 4e3e d75d 53bd c478 20be 1a21 dd3d

feature_extractor.7.bn1.running_var f4 [64]
0.7279726 0.38856477 0.25811976 0.5028398 0.3679824 0.30294186 0.47772253 0.22558093
0.37717453 0.3755451 0.6792312 0.511849 0.4625444 0.27008787 0.32413262 0.8280482
0.51583475 0.40887594 0.2883105 0.43457365 0.39643034 0.38351977 0.4214672 0.74609745
0.35105827 0.27879623 0.23116931 0.29073876 0.38960406 0.41637313 0.6330915 0.27369788
0.24508944 0.35185617 0.34674838 0.3555398 0.43614265 0.32877553 0.17730546 0.28587562
0.15244487 0.19744942 0.36107197 0.28704545 0.29416013 0.19186378 0.22104257 0.19777608
0.5810204 0.2189755 0.17264634 0.43257594 0.6426089 0.54590154 0.35564435 0.3484381
0.4764619 0.21590506 0.60060936 0.63681006 0.32547057 0.43712446 0.32819083 0.20489754
00000000: 6a5c 3a3f f6f1 c63e 4628 843e 1cba 003f
00000010: 3068 bc3e 321b 9b3e 0c98 f43e b0fe 663e
00000020: 051d c13e 7347 c03e 19e2 2d3f 8908 033f
00000030: 9fd2 ec3e f548 8a3e b6f4 a53e f8fa 533f
00000040: bf0d 043f 3058 d13e 6f9d 933e 7080 de3e
00000050: ebf8 ca3e b45c c43e 8dca d73e 3e00 3f3f
00000060: e9bd b33e 61be 8e3e a6b7 6c3e b6db 943e
00000070: 2f7a c73e dc2e d53e 4912 223f 2122 8c3e
00000080: baf8 7a3e 7e26 b43e 0189 b13e 5009 b63e
00000090: 174e df3e 4455 a83e 908f 353e 4a5e 923e
000000a0: 821a 1c3e 2e30 4a3e 6dde b83e 9ff7 923e
000000b0: 289c 963e f077 443e fc58 623e d085 4a3e
000000c0: c1bd 143f 1d3b 603e 34ca 303e 987a dd3e
000000d0: 0482 243f 34c0 0b3f 0417 b63e 7b66 b23e
000000e0: d0f2 f33e 3716 5d3e 89c1 193f fc05 233f
000000f0: 14a4 a63e c7ce df3e a108 a83e a9d0 513e
