submission/models/model_lf.pt (torch, 869434 bytes, 46 tensors)

feature_extractor.0.weight f4 [32, 3, 5, 5]
00000000: 7c6b 873e c4c4 9f3e 07b6 033f 5df0 3c3e
00000010: a92f 013f 70e2 503f 9f91 493f e743 1d3f
00000020: 46c3 fe3e 03ef 293f d721 a8bf 6226 29bf
00000030: 7bcf 9bbc de90 bdbe 9144 68be eba9 3fbe
00000040: f57a c6be 1c68 b13d 6b9e 303f 1037 ebbe
00000050: f1e5 efbb 624e adbf 87bd c9bf 0a64 6fbe
00000060: ca99 dbbe 5183 32bf 1618 23bf 30bc c6be
00000070: 2d72 f5be 4be0 99be e322 46bd 1a16 3fbe
00000080: 2124 dfbc a736 99be e5bd 51be 9fd5 a8bf
00000090: 458b 09bf 7ce1 dcbd a306 5bbe e6b5 6dbe
000000a0: 2347 a6be 14bd febe 2a97 c8be 1a00 8a3e
000000b0: 6506 41bf c46c db3e 1935 0bbf 55db 83bf
000000c0: 13b5 083e 2f28 eabd 946a adbd 2f88 283e
000000d0: 5f46 0b3f b9e3 473e 2b10 893e 0e6b 673f
000000e0: 11f3 c83f 2448 d53f 9db8 a13f 03e3 793f
000000f0: c495 5dbf 44f3 90be 14ac 5a3e ee57 bdbc
00000100: 88c5 05bd 1a2b 233e edcd 63bc 93ab 9cbc
00000110: 9e26 fa3e 3f88 9cbe 830b 583f bcd8 53be
00000120: ac0f 2fbf 11cf ae3e 1883 153d 31bf 25bf
00000130: a0f7 00bf 8538 c33e 7301 2c3f 4271 763f
00000140: b161 a93e b368 83bd 71f2 fc3f 9e70 ed3f
00000150: c148 db3f 3220 03bf 2622 0bbf e1a7 45be
00000160: d89e 613a b9d3 4a3e 6eaa 88be 3fb0 79be
00000170: e135 acbe 56da 13bf 5ac3 81be 2478 91be
00000180: c8f9 cbbd 2236 aabd ab2f 27bf af89 9abe
00000190: 3334 e8be 64c0 cebe bec1 393f 2082 8b3f
000001a0: a5b6 c03f 3d4b cc3e 7891 c33d fae9 4d40
000001b0: d6ae 5640 fcdb 1940 c8d5 6fbe 7f5e 36bd
000001c0: 511d 433e fe24 c93e 3344 023f 52d1 dcbd
000001d0: ebfa e7bd c0b0 2fbe 58ec 87be 6746 28be
000001e0: ee1d abbe 4d39 81bc cb6e 073c c276 02bf
000001f0: 9059 9fbe 78d3 953c 22bb ecbd d83e 78be
00000200: eeeb 9abe ae4a 7ebe 6e0e 11bf 65e9 64bf
00000210: e80f 72bc b13e 79be 529c a0be 45af e4be
00000220: 4982 f9be dfad 493c 6476 0bbe 8e0a c33c
00000230: 4eda 843e f529 103e c541 883e 1ce0 d53c
00000240: 0bc1 913e bd3d 3d3e d4ca 373f 2e2f 693f
00000250: d155 fb3e 890d 203f a496 cd3d d047 9a3e
00000260: 0df1 47be 4f7b 69be a39c 1d3d e696 733f
00000270: fe23 143f c24f 3dbf 56c4 80bf 36f1 91bf
00000280: 67f9 3d3e f1b2 68bf 5e76 bebf a2ad bfbf
00000290: fe91 cdbf 61e7 c6be 5953 843e c4e7 3abf
000002a0: 1826 9cbf 1dcc 93bd 20d8 8c3d ea91 003e
000002b0: 45aa 5d3e 412c d53e bd00 033e f6db fe3d
000002c0: 6325 e33e 355c a5bd 6339 37be 7abd 493c
000002d0: ef7c 323f 9c6a d03e 546e 40bf 9096 4cbf
000002e0: c28a 28bf a48a 87be 8b06 87bf 9f49 9cbf
000002f0: b32a 8bbf e9f7 54bf 0bab 2abf 3bcf d8be
00000300: 503a 9fbf ef18 c8bf 08f5 dabd 9bcf 06be
00000310: 8dde 83be d1cb ef3c af4f 54bd 5c4d 8bbd
00000320: aa13 af3e 6d52 1b3f 4af6 6a3e 6c31 43bd
00000330: dace 14be dcba d63f 9e98 553f cbf1 a1be
00000340: 3e46 71bf 1720 97bf 9e69 7ebf 4190 d3bf
00000350: 3ba2 c2bf 7a25 9cbf c7b5 c8bf de7b 0bbf
00000360: 8fd6 a73d c35e aabf cd3e c2bf 80b9 fcbe
00000370: e69e afbe 0d5c 0dbf de75 1dbf 03bb e4be
00000380: a5b1 18bf 8abe bebf 4ca7 c0bf 4871 05bf
00000390: 4471 c53c 37c8 383f dfab 5a3e d736 473e
000003a0: 29b2 2c3f fb7c 633f 1a93 9b3f 670f d7be
000003b0: ddd7 2ebe 6826 edbd 26d6 17bf a3f6 83be
000003c0: 9509 ba3e 1bf9 243f c285 053f 3cd2 4b3e
000003d0: 745c c63e 3309 3d3f a1f9 093f bf73 483f
000003e0: 1ab6 a3bd a9e1 f5be c168 4dbf f8f8 51bf
000003f0: 16f1 15bd bc1a a23e 667f 3b3f 8340 873e
0.26449192 0.31204808 0.51449627 0.18451066 0.5046335 0.81595516 0.78737825 0.61431736
0.49758357 0.6638033 -1.3135327 -0.6607419 -0.019019833 -0.37024587 -0.22682406 -0.18717162
-0.38765684 0.086624354 0.68991727 -0.45940447 -0.0073211123 -1.3539546 -1.5760964 -0.23378006
-0.4289077 -0.6973162 -0.6370863 -0.3881545 -0.47938672 -0.30053934 -0.048373114 -0.18660775
-0.027238907 -0.2992451 -0.20482595 -1.3190192 -0.53728133 -0.10785195 -0.2138925 -0.2321392
-0.32476148 -0.4975363 -0.3917783 0.26953202 -0.7540038 0.4285642 -0.54377896 -1.030131
0.13350324 -0.11433446 -0.08467594 0.164582 0.5440425 0.19520463 0.26770148 0.9039773
1.5699178 1.666264 1.2634465 0.9761202 -0.8655665 -0.28310597 0.21354705 -0.023113217
-0.032659084 0.1593441 -0.013904077 -0.019124782 0.48857588 -0.30572698 0.84392565 -0.20688146
-0.6838329 0.34142354 0.036501974 -0.6474486 -0.50377846 0.38129058 0.6718971 0.9626657
0.33082345 -0.06416454 1.9761487 1.8549993 1.7131578 -0.51221 -0.5434898 -0.19302322
0.00086067384 0.19807328 -0.26692528 -0.24383639 -0.33634856 -0.5775503 -0.25344354 -0.28411973
-0.09959751 -0.08311106 -0.6530711 -0.3018317 -0.45352325 -0.40381157 0.7256125 1.0899086
1.5055739 0.39901152 0.0954923 3.2174058 3.3544211 2.4040518 -0.23421395 -0.044523712
0.19054152 0.39286035 0.50885314 -0.10782112 -0.11327156 -0.17157269 -0.26547503 -0.16433106
-0.33421272 -0.015774393 0.008266161 -0.5096246 -0.31123018 0.018289313 -0.1155913 -0.24242723
-0.30258125 -0.24833176 -0.5666264 -0.8941863 -0.0147743 -0.24340321 -0.31369263 -0.4466497
-0.48732212 0.0123095205 -0.13619381 0.023808744 0.25947803 0.14078505 0.26612678 0.02610784
0.28467593 0.18480583 0.71793866 0.91087615 0.4908891 0.62520653 0.10038498 0.30132914
-0.19525547 -0.22800945 0.03847946 0.9515213 0.5786742 -0.73949826 -1.0059917 -1.1401737
0.1855217 -0.9089804 -1.4879873 -1.4974864 -1.6060178 -0.38848403 0.2584484 -0.73009896
-1.2199125 -0.07216666 0.0687716 0.12555662 0.21646984 0.41635326 0.1279325 0.12444298
0.4436446 -0.08074228 -0.17892985 0.012313241 0.69721884 0.40706336 -0.7516835 -0.7991724
-0.6583673 -0.26472962 -1.0548872 -1.2209967 -1.0872406 -0.8319078 -0.6666724 -0.42345604
-1.243967 -1.5632609 -0.10691267 -0.13165133 -0.2575573 0.029271992 -0.051833805 -0.068018645
0.3419469 0.60672647 0.22945514 -0.047654554 -0.14532033 1.6775775 0.83436 -0.31629786
-0.94247806 -1.1806668 -0.9937991 -1.6528398 -1.5205759 -1.2198937 -1.5680474 -0.5448588
0.08195221 -1.3310169 -1.5175415 -0.49360275 -0.34300917 -0.55218583 -0.61507976 -0.4467393
-0.59646064 -1.4901898 -1.5051055 -0.5212598 0.02410186 0.72180504 0.21354626 0.19454513
0.6745935 0.8886258 1.2154267 -0.4200394 -0.17074533 -0.11579591 -0.5931114 -0.25774106
0.36335436 0.64442605 0.52157223 0.19904417 0.3874241 0.7384216 0.5389653 0.78301615
-0.079937175 -0.48023728 -0.80237967 -0.8202052 -0.03660687 0.31661022 0.7324127 0.26416406

feature_extractor.0.bias f4 [32]
00000000: 7689 52bb 5313 c0bd 9a42 2dbb 617a a73d
00000010: a021 c93d ae36 f639 860d 7e3d 05ec 913d
00000020: d55f bebc 982d adbd 4f7d 20bd 258a cdbd
00000030: c144 d6bc f818 a7bd 775c 02be e609 dd3d
00000040: ba4e 2f3d 3474 833d 6370 f9bc e2df 55bc
00000050: 9141 c5ba f285 9b3d 6e9d f0bc f589 5c3d
00000060: 25cb 8e3d 7977 e9bd a140 29bd 275f af3d
00000070: 9212 01bd e278 b3bd 2eb0 90bd 15df a63c
-0.003212539 -0.09378686 -0.0026437403 0.08177639 0.098208666 0.00046961516 0.062024616 0.07125095
-0.023239056 -0.08455962 -0.039182004 -0.100361146 -0.026155831 -0.08159059 -0.12730585 0.107929036
0.04279969 0.06418648 -0.030449098 -0.013053866 -0.0015049448 0.075939074 -0.029371943 0.053842504
0.069723405 -0.11399741 -0.0413214 0.08563071 -0.03151185 -0.08763291 -0.070648536 0.020370046

feature_extractor.2.weight f4 [32]
00000000: 27ae 793f 3cf5 543f 051a 3040 8532 193f
00000010: 43ac 923f 8842 3040 0936 a33f 16be 6d3f
00000020: bed3 b73f c0c0 ea3e 90bd 963f ef5a e63f
00000030: 4f44 0840 4ef8 893f d652 543f d105 4d3f
00000040: b997 6a3f e9b8 5f3f 26bf db3f 8190 5f3f
00000050: 6fd8 d63f 2fe1 7d3f db79 463f 42e3 473f
00000060: b542 7d3f f4f7 e73e 18a2 833f c1f3 c63f
00000070: a36f 683f 8af5 2140 495e 6a3f f083 843c
0.9753136 0.831867 2.751588 0.5984271 1.145882 2.7540607 1.2750865 0.92868173
1.4361494 0.45850182 1.17766 1.7996501 2.1291692 1.0778902 0.829389 0.80087
0.9163776 0.87391526 1.7167709 0.8732987 1.67848 0.9917173 0.77529687 0.7808114
0.9892991 0.4530636 1.0283842 1.5543138 0.90795344 2.5306115 0.9155012 0.016176194

feature_extractor.2.bias f4 [32]
00000000: f347 debe 142c 2abf 3f72 0abf 420a 2fbe
00000010: 3694 99be 411f 41bf 1c8a 25be 217d dcbe
00000020: 1330 cfbe 4965 583e 1655 debe 96a3 2dbd
00000030: 30e4 1abf 3460 8ebe 4399 c0be b98d bbbd
00000040: afd0 78be 8aaf c8bd 778d 18be df2a 683e
00000050: 202e c0bc d0a3 ddbe 1696 c53d fc88 6fbf
00000060: 3da8 4ebf 46ad c9be 62c8 ebbe 3f23 a5be
00000070: a10f 10bf 5134 1abf 64ee c8be 1d58 babd
-0.43414268 -0.6647351 -0.54080576 -0.17093757 -0.29995888 -0.75438315 -0.16165966 -0.43064216
-0.40466365 0.21132387 -0.4342429 -0.042392336 -0.60504436 -0.27807772 -0.3761693 -0.09157891
-0.24298356 -0.097991064 -0.14897715 0.22672604 -0.023459494 -0.43289042 0.09647767 -0.93568397
-0.8072546 -0.3939001 -0.46051317 -0.32253453 -0.5627385 -0.6023608 -0.39244378 -0.090988375

feature_extractor.2.running_mean f4 [32]
00000000: cdfc a840 b451 94c0 3b28 c241 bf04 9abf
00000010: ac46 9c40 812c 7241 3b45 7040 4ded 6640
00000020: a740 8e40 f273 a43f dd1d 0141 62a4 0c41
00000030: 2fcd d340 066e 3040 d4b1 7140 74c0 4740
00000040: 7b2f 4b40 8ed0 5e40 1fd5 c640 5ebb 19c1
00000050: 81f6 fd40 d0de 7140 9618 2440 5422 3b40
00000060: 3e5c 13bf 4982 1ac0 1d44 5f40 ab50 ae40
00000070: c17f d5bf b994 9f41 4c7d b540 5485 c3c0
5.2808595 -4.6349735 24.269644 -1.2032698 4.883627 15.135865 3.7542255 3.6082337
4.445392 1.2847884 8.069791 8.7901325 6.618797 2.7567153 3.7764788 3.1211214
3.174773 3.4814792 6.2135158 -9.608244 7.936341 3.7792244 2.5640006 2.9239702
-0.57562625 -2.414202 3.4885323 5.447347 -1.6679612 19.947618 5.671545 -6.1100254

feature_extractor.2.running_var f4 [32]
00000000: 6a95 8542 58cb 8743 3174 7044 a1a7 4342
00000010: faab 2c42 69bc da43 44f3 f741 968d 9f41
00000020: a60a 8742 2c6d 3742 cb76 9442 bb48 4743
00000030: daee 7442 7e4f 4a41 0a99 0342 e578 1442
00000040: e72d ec41 f376 c941 2daa 6642 2910 c143
00000050: dc94 4043 2e4c 0742 be44 a041 9529 2342
00000060: 5b3d 6242 0e9b d542 0400 5942 5288 8942
00000070: 109b 9d42 eab9 fd43 b8b9 2942 b4a9 3143
66.791824 271.58862 961.8155 48.9137 43.167946 437.47195 30.993782 19.944134
67.5208 45.856613 74.23202 199.2841 61.233253 12.644407 32.899452 37.11806
29.522413 25.18308 57.666187 386.12625 192.58148 33.824394 20.033566 40.790607
56.559917 106.80284 54.250015 68.76625 78.80286 507.45245 42.431366 177.6629

feature_extractor.4.conv1.weight f4 [32, 32, 3, 3]
00000000: 8f7a 303e 5ca6 80be 6562 5bbf 090f 6b3e
00000010: 6598 c53e cbd6 7bbe 0fa7 d8be bd7b b73c
00000020: 9246 1cbe bffd d3bd 8296 963c 133b 67bf
00000030: f9d1 813f 5a56 463f dae4 693f 6625 23bf
00000040: 37b0 42be 88b5 83bd bfe9 d33e a7f3 003f
00000050: 650b ba3f 66d1 78be 90b9 953c 86d4 22bd
00000060: 9fbe 8abf 5c6b 7ebe c2ad 9dbf 7086 473f
00000070: 4596 26bd 39f8 643e 1adf 813e 5c67 2b3e
00000080: e1af bbbe 4964 acbe 3168 f8be 8c0f cfbe
00000090: 803d c73b 857b 11bf b8ec a3be 1c26 583e
000000a0: 3a6e 943e 904a ac3e bbf7 633e 3569 3f3e
000000b0: 1a6c 72bf 08cf a0be 9732 723d 4f2d 163f
000000c0: 79ba 13bb 605e e8be 0f76 b9bf 8f79 febf
000000d0: f78f f5bf f633 f3bf 47f1 a93f 9b79 5c3e
000000e0: e2b3 f6be 7fc8 6bbe 1c6f 02bf fa81 62bf
000000f0: 1e09 363f e48f d53d e809 423e 7cb1 913f
00000100: ae16 c03f ec4c b73e a5f0 6a3d e0a5 f7be
00000110: 6610 2abf bdc5 153f fb70 053f 9177 e4be
00000120: 38ea bdbf f95c a2bf eceb f7bf 2b2d 59bd
00000130: 3cd0 b93e 74de b0bd c738 563f bc82 fb3e
00000140: 9a01 0b3f 295a 9fbe 5b95 45be 9276 683d
00000150: e5d3 97bf 4eb7 29bd 5669 7a3e 4b45 8cbe
00000160: 35d5 f8be 60ef 5cbf 6aab 64be e640 6d3e
00000170: b989 393e cd66 cbbe 033a 03bf 4922 c2be
00000180: 9749 f8bd 6b0c 0d3f eb85 64be 9d6c eb3e
00000190: 5912 1a3f 9b38 8c3f 01dc 3d3f cea5 3abe
000001a0: 2802 aebd aaeb 4d3e 6a03 7d3f 4ffb 433f
000001b0: 4d68 61bf 45e5 6b3d df19 923d bcb0 443f
000001c0: f13e 2e3f 86d9 4f3f d551 f43f 0b7d ba3f
000001d0: 7562 673f bcac b83d 8cc8 82be 2221 f5be
000001e0: b7df 80be ea10 793e a86e 66bc 0761 fe3d
000001f0: 1320 523f 9cb4 083f 5cfd b1bf fbf4 9d3d
00000200: 67b6 683f 321d 84be 16f6 0fbe 9a02 43be
00000210: 8972 603e cd1c 71be 7b07 1c3e dbd8 94be
00000220: b3bc b03d 1fa9 2b3e 453f da3e 6337 923e
00000230: d51b c63e 5a3f 213f 854d abbe eacd 2e3f
00000240: 7710 56bf 8da7 f7be a6e2 ba3e b136 94bd
00000250: 593c 8f3e adc3 983e 9c19 913e c719 bebe
00000260: c298 183e 1a08 d33e bda3 ab3e f0a6 50be
00000270: 3822 373f 0328 9f3d 759d 263e 6271 303f
00000280: aa29 e4be dbbf 793c 2692 1abf 3e1f 95bf
00000290: 1817 e1be abf8 2e3e 7361 4dbf 1f4f fbbe
000002a0: d5f1 d03f 4841 a13f 8a19 c13e 55e8 a23e
000002b0: 21ea a4bc 57b1 8cbe 62b5 3c3d 0282 2b3f
000002c0: 7553 8e3f 65c6 66bf 9075 6fbf 4659 8cbf
000002d0: b94c f1bd fd18 25be fdd4 f2be bbd0 5e3f
000002e0: 75fe 9bbd 660e bcbf 9823 dc3f 2963 253e
000002f0: 1de4 153f b127 833e 34e6 3c3f b94f 1cbe
00000300: aed0 87be 4164 f83e 5a59 453f 47d4 8a3f
00000310: 071c 3d3e 6962 65bd ac71 59bf eeff 983e
00000320: 62af a63e 238b 29bf 2ea8 15bf 4138 03bf
00000330: e61d ae3f 0912 333e 54a7 02bd c2db c7bc
00000340: a87a c63e 28f0 3b3f 80c1 b83e 0938 173f
00000350: 6467 1e3f d720 df3d 6674 64bf 7b0c 5ebf
00000360: 0d40 fbbe a016 f5bd 344a 093f 265c 57bf
00000370: 3e1e 5c3f 1489 593e 1aa1 8dbe b608 27bf
00000380: c8ef 6ebe 5d67 f23e 2d86 17bd 70b6 1f3e
00000390: a93b 593e 1b34 cc3d 6479 40bc 9a11 8b3f
000003a0: ba5d 923e b51c 0b3f 62b6 f3bd c0ea 4e3d
000003b0: 9d0e 4f3f 45c8 43bf 9225 5ebf fe41 adbe
000003c0: e691 afbe c633 023e 9ffe 883e d106 c1bf
000003d0: 3c4b 573e bb95 00bf 39e0 80bf be39 e9be
000003e0: 043a aabe 4e88 e53e aaf9 17bf f0f8 d6be
000003f0: 2b13 97bd c6ad c6bd 1a40 7b3e 46f8 543e
0.17234252 -0.25126922 -0.85697013 0.22954954 0.3859283 -0.24593656 -0.42314956 0.02239787
-0.15261295 -0.103511326 0.018382315 -0.90324515 1.0142204 0.7747551 0.91364825 -0.6372894
-0.19012533 -0.06431109 0.41389272 0.50371784 1.4534727 -0.24298629 0.01827696 -0.03975346
-1.0839423 -0.24845642 -1.2318652 0.7793951 -0.040670652 0.22360314 0.25365525 0.16738647
-0.36657622 -0.33670262 -0.48516992 -0.4044155 0.0060803294 -0.568291 -0.3201654 0.21108288
0.28990346 0.33650637 0.2226247 0.18692477 -0.946962 -0.31407952 0.059130277 0.58662885
-0.0022541566 -0.45384502 -1.4489154 -1.9880847 -1.918456 -1.9000232 1.3276757 0.21530764
-0.48184115 -0.23025702 -0.5095079 -0.8847958 0.7110766 0.104278356 0.18949091 1.1382289
1.5006921 0.35800874 0.057358403 -0.4836874 -0.6643127 0.5850485 0.5212552 -0.44622472
-1.4837103 -1.2684623 -1.9368873 -0.05302159 0.36291683 -0.086361796 0.83680385 0.4912318
0.5429932 -0.31123474 -0.19295256 0.056753702 -1.186154 -0.04143458 0.24454245 -0.27396616
-0.48600164 -0.8630276 -0.22331014 0.23169288 0.18118943 -0.39726868 -0.51260394 -0.37916782
-0.12123411 0.55097073 -0.2231671 0.45981303 0.60184246 1.0954775 0.74163824 -0.18227312
-0.08496505 0.2010943 0.98833334 0.7655534 -0.88049775 0.057591695 0.07133841 0.76832175
0.6806479 0.8119129 1.9087473 1.456941 0.9038461 0.090173215 -0.2554363 -0.4787684
-0.2517068 0.24322858 -0.014064468 0.1242085 0.8208019 0.5340059 -1.3905444 0.07712742
0.90903324 -0.25803524 -0.14058718 -0.19043961 0.21918692 -0.23546143 0.15237229 -0.29071698
0.086297415 0.16763733 0.42626396 0.28557882 0.3869311 0.6298729 -0.3345758 0.6828295
-0.83618873 -0.4837002 0.36501044 -0.07236994 0.2797573 0.2983679 0.2833985 -0.37129042
0.14902022 0.41217119 0.3352336 -0.20376182 0.7153659 0.077713035 0.16271003 0.6892301
-0.44563037 0.015243496 -0.60379255 -1.1650159 -0.43962932 0.17087047 -0.8022682 -0.49083802
1.6323801 1.2598047 0.37714797 0.3181788 -0.020131173 -0.2747905 0.046071418 0.6699525
1.1119219 -0.90146476 -0.9353876 -1.0964744 -0.11782212 -0.16122814 -0.47428122 0.8703725
-0.07616893 -1.4691894 1.7198362 0.16151108 0.585512 0.2561622 0.7378876 -0.15264787
-0.26526397 0.48513988 0.77089465 1.0846032 0.18467723 -0.056002054 -0.84939075 0.2988276
0.3255568 -0.6622793 -0.58459747 -0.5125771 1.3602874 0.17487349 -0.031897858 -0.02439678
0.38765454 0.73413324 0.3608513 0.5906988 0.6187651 0.108949356 -0.8924011 -0.86737794
-0.49072304 -0.11967206 0.5362885 -0.8412498 0.85983646 0.21243697 -0.27661973 -0.65247667
-0.23333657 0.47344485 -0.036993194 0.15596938 0.21214165 0.09970876 -0.011747692 1.0864747
0.28587133 0.5434068 -0.11900021 0.050516844 0.80881673 -0.7647746 -0.8677608 -0.3383941
-0.34291 0.12715062 0.2675676 -1.5080205 0.21024793 -0.5022847 -1.0068427 -0.45551866
-0.33247387 0.44830555 -0.5936533 -0.419868 -0.07376703 -0.097011134 0.24536172 0.20797834

feature_extractor.4.bn1.weight f4 [32]
00000000: 848a b53f a9c8 923f 6087 8d3f e2ff b73f
00000010: 6e09 ae3f b19e c03f bd42 e53f e50e ad3f
00000020: 036b d93f 8e0d a03f 8db8 db3f 90dc b03f
00000030: e2c8 973f dfb7 ca3f f1ed 993f 5066 9f3f
00000040: 7b71 a73f f687 b43f 01f0 9c3f 1a25 c53f
00000050: a02d 9d3f 0559 a23f 880f a93f 69ad da3f
00000060: 455f 9c3f e85f a03f eaeb ea3f 1934 cd3f
00000070: 1d26 8b3f 9a06 5b40 225b a83f 1123 e03f
1.4182897 1.1467487 1.1056938 1.4374964 1.3596628 1.5048429 1.7910992 1.352017
1.6985782 1.2504137 1.7165695 1.381731 1.185818 1.5837363 1.2025739 1.2453098
1.3081506 1.4103992 1.2260743 1.5401947 1.2279549 1.2683417 1.3207865 1.708417
1.2216574 1.2529268 1.8353245 1.6031524 1.0871006 3.422278 1.3152812 1.7510701

feature_extractor.4.bn1.bias f4 [32]
00000000: 33a2 04bf 3202 46bf b054 c8bd 07b2 1fbf
00000010: b026 08bf a42d b6be 52f2 8cbe 3f1a 50bd
00000020: cdf4 68bf 014b 05bf 99c6 6ebf f1b0 4dbf
00000030: 3db5 42bf 71e5 2dbf 3307 6bbf 96a7 49bf
00000040: 1448 073f e417 48bf f88b 0bbe d6c0 1fbf
00000050: cddb b5be 8aad 87bd e1ca e7be f899 52bf
00000060: f180 69bf 04e2 53bf 4b69 efbe 25db 1cbf
00000070: f95c 04bf f6ae b9be f867 dabe 57cf cc3d
-0.51809996 -0.773471 -0.09781778 -0.62381023 -0.5318403 -0.35581696 -0.27528626 -0.05080628
-0.90998536 -0.5206757 -0.93271786 -0.80348116 -0.760578 -0.67928225 -0.9180786 -0.7877134
0.5284436 -0.78161454 -0.13627613 -0.6240362 -0.35519257 -0.06624897 -0.45271972 -0.8226619
-0.91212374 -0.8276675 -0.4676002 -0.6127189 -0.51704365 -0.36266297 -0.42657447 0.100004844

feature_extractor.4.bn1.running_mean f4 [32]
00000000: 08f0 b3be 66f4 73bf 0bed 893e 8133 16c0
00000010: 1807 dcc0 5937 d7c0 fdb4 64c1 4427 41c1
00000020: 6472 99be 7f64 7640 38c6 00c1 8e58 a441
00000030: 7f11 6941 807f 6440 c1f3 7541 e8ee 4bc0
00000040: c745 38c1 cbf2 f640 45ad b73e 2b76 d1bd
00000050: 7d15 b8bf 1073 9ac0 a9ac 83c0 82b2 fac0
00000060: f9d8 2b40 6d0c 9f40 1464 3ec0 4b4f b8c0
00000070: b6ed 52bf 7f94 11c1 b0c5 a8c0 8593 6bbe
-0.35144067 -0.952948 0.26938662 -2.3468935 -6.875866 -6.7255063 -14.294187 -12.072086
-0.29970086 3.8498838 -8.048393 20.54324 14.5667715 3.570282 15.37201 -3.1864567
-11.5170355 7.717138 0.35874382 -0.10227617 -1.4381558 -4.8265457 -4.1148267 -7.8342905
2.685118 4.970267 -2.9748583 -5.7596793 -0.8239397 -9.098754 -5.274132 -0.23005493

feature_extractor.4.bn1.running_var f4 [32]
00000000: 43f7 4742 a954 a142 b96a 8642 a8a4 d042
00000010: c583 ed42 da87 fa42 343a 7443 fe79 da42
00000020: b9b2 db42 b662 d142 b533 f242 1abd 8143
00000030: 9d5c 0443 c5d2 a142 fb05 0043 0833 b242
00000040: c4b0 2943 7003 9343 4619 9c42 ab2b 1d43
00000050: bb35 8042 4630 e442 c77a de42 8e43 0b43
00000060: ad5a 8942 fae3 3e42 2f04 3f43 a327 ba42
00000070: c331 8b42 2412 6a43 7c39 5243 7530 e742
49.991467 80.66535 67.20844 104.321594 118.75736 125.265335 244.22736 109.238266
109.84907 104.692795 121.10099 259.47736 132.36177 80.91166 128.02336 89.09967
169.69049 294.02686 78.04936 157.17058 64.10494 114.094284 111.2398 139.26389
68.6771 47.722633 191.01634 93.077415 69.59719 234.07086 210.22455 115.59464

feature_extractor.4.conv2.weight f4 [32, 32, 3, 3]
00000000: 09b9 42be 37c2 5bbf 0081 bdbf be43 833f
00000010: 4f27 c23e 625d ebbe 6658 9abe fcb8 4e3d
00000020: eac8 ab3d 2260 c1be b558 24be bef4 8bbf
00000030: 7470 553f 31e1 5c3e 2151 1b3f b9a4 febe
00000040: b5f5 72be fe1d 1cbd 6947 803f ece5 c63f
00000050: 96f7 1d40 f70b 4fbd 9c77 e83c b079 87bd
00000060: 6af7 76bf 45a2 4bbf 2fcd bdbf d442 493f
00000070: 99de 45be 6d1d ff3d 4ffe ffbe ac37 36bf
00000080: d852 38bc ef79 7cbe 6983 123e 83bf 183f
00000090: fb7c 76be 648b afbf 31b4 75bf e0a2 793e
000000a0: 2cee 203f 22a9 443f 7731 09bf 7d7d fc3c
000000b0: 265e 013e 3cf3 393f 0688 d23f e8f9 0b40
000000c0: 256f 8dbe c7b2 18be 88f1 68bf 5277 f5be
000000d0: d358 50bf 71e6 b1bf 6b19 433f 548f b3be
000000e0: 8250 91bf c12f 70be 30bb 4cbf b3d1 64bf
000000f0: e630 d93e ccf2 2d3d 9d75 8b3e f997 8a3f
00000100: 4ed3 2f3f 47f6 7bbe 2139 d9be f013 38bf
00000110: 85ab 163c 6642 09bf a9d7 2c3e fb0d e73e
00000120: 472a 82bf b43e 85bf d87d 83bf d42d 71bf
00000130: 05f5 533d 6a7e 803e 3739 41bf fbb9 d23e
00000140: b7cd 393f 7f6d c33d 5c90 5ebe 674d 4dbe
00000150: 741d 86bf 4aca 2c3f 3aee b93e f81e 8cbf
00000160: 6cfd 19be 5625 b3bd 7819 92bd 54ca 003f
00000170: 7216 193f 3b55 38bf 6a4d 10bc 52e5 c33e
00000180: 1d09 c0be 5bf7 293f 4935 413f cf4d 013e
00000190: a97a 4b3e d97b 2a3f 8ec3 ec3d d0b7 f5be
000001a0: a4cb 07bf df7e 70bf 760f db3e 1283 bd3e
000001b0: ba78 a6bf ff5a b83c 5f12 953e c8fc 5a3d
000001c0: 3bc1 e9be d386 a53d 3014 183f bb91 533e
000001d0: f9ba 3ebd c857 10bf cc0a 8abf 9eb3 44bf
000001e0: 19ef 0b3e 240c 9d3e 89ed 663e c8cb 683e
000001f0: 3ac4 74be b8a1 84be c471 06bf 52e5 9ebe
00000200: 7c06 6d3e 22b0 5a3e 3afe e43e 0af2 383e
00000210: 5a9d fbbe bd29 863d 6bc1 cd3d 90e7 293b
00000220: fb4d f53d 6b2e 883c c66b 163d d21f b63d
00000230: 28fb d23e d52c b8be f984 40bf 63d4 dc3e
00000240: 287d 87bf ad11 84bf c72b f53d c2e6 15bf
00000250: 6588 883d 5eca 023f e64d 9cbe 0fe2 b43c
00000260: 67f6 383f a310 f4be 2f39 84bf 0cca 16bf
00000270: 729f 893f eb44 5f3d e1ff 833e c11e 5c3f
00000280: 37d0 58be fcc7 e13e e7fa 3ebf c2fe 94bf
00000290: 79e8 56bf 9e7a ba39 44d1 30bf ba6f 893d
000002a0: 303d ad3f 8b41 4b3f c0fa d63e dd38 133f
000002b0: 8889 f7bd 974a 0bbf 3968 ca3e d351 4a3f
000002c0: 8eb1 4a3f c0e0 61bf 465c 58bd d9f7 b8be
000002d0: 3af2 90bf 2ce8 53bf 74a9 febe 6ede cfbe
000002e0: 82ae 15bf d0b2 abbf 3a7f 5c3e 0dce e3be
000002f0: 2643 a53e b740 b8be 8bff 513c aa8c 0dbf
00000300: fa1d 1e3f f96b d33e 5920 4c3f b17c a83f
00000310: 9602 25be 9fda d4be e822 413f 9dc9 db3e
00000320: e74c 553f e10b 3a3d 16b3 ba3d 341b 363f
00000330: c010 f73e 03b9 a53e d252 89ba ceba e13d
00000340: 4749 5bbe f5f2 413e 73e4 823f 2a57 183f
00000350: f2e5 733f 2170 20bf f09e a8bf a1ee 5dbf
00000360: b73e 473a ae0c 6ebe ba55 1d3f 6726 65bf
00000370: 511e 26be 84a5 51bc 892b 24be 05da 3fbf
00000380: 0c83 c9bd a0e9 0f3f 70f9 acbe 0636 a5be
00000390: e1d6 953e 386f 04bd eaf1 843d 5b8c 3d3e
000003a0: ce54 fd3b c9d0 0b3d 7350 c43e 418c 2b3e
000003b0: 049d 093f e276 87be c310 363e 0498 9e3e
000003c0: fbbe cebe 7c41 f53d 33d2 b63d b360 4dbe
000003d0: 2f5c b53e ede1 dc3d df81 7ebf ab56 a8bd
000003e0: 0e87 9fbd 1513 a1be 0249 29be 5b02 3abf
000003f0: 6026 a33e f6c5 80be 6a94 a3bd 3dac 433e
-0.19015898 -0.85843223 -1.4804993 1.0255048 0.37920615 -0.45969683 -0.30145568 0.050469384
0.08387931 -0.37768656 -0.16049464 -1.0934064 0.83374715 0.21570279 0.6067067 -0.49735048
-0.23726542 -0.03811454 1.0021793 1.5538917 2.4682364 -0.05054852 0.028377347 -0.06615007
-0.96471274 -0.7954448 -1.4828242 0.78617597 -0.19323196 0.124567844 -0.4999871 -0.711787
-0.01125022 -0.24655889 0.14307941 0.59667224 -0.24071114 -1.3714414 -0.95978075 0.24378538
0.6286342 0.76820576 -0.535911 0.030821556 0.12633571 0.7263677 1.6447761 2.187128
-0.2762386 -0.14911948 -0.9099355 -0.47942597 -0.81385535 -1.389845 0.7621066 -0.35070288
-1.1352694 -0.23455717 -0.79973125 -0.89382476 0.4242012 0.042467877 0.2723817 1.0827628
0.686818 -0.24605666 -0.42426398 -0.7190542 0.009196167 -0.5361694 0.16879143 0.45127854
-1.0169152 -1.040976 -1.027278 -0.94210553 0.05174734 0.25096446 -0.7547793 0.41157517
0.7257952 0.09542369 -0.21734756 -0.20049058 -1.0477738 0.6749617 0.36314565 -1.0946951
-0.15038079 -0.08747356 -0.07133764 0.5030873 0.59799874 -0.7200505 -0.008807519 0.38260895
-0.37506953 0.6639306 0.7547193 0.12627338 0.1987101 0.66595227 0.115607366 -0.479918
-0.53045106 -0.9394359 0.42785233 0.3701406 -1.3005593 0.022504328 0.2911558 0.053463727
-0.45655236 0.08082356 0.59405804 0.2066106 -0.04656503 -0.56383944 -1.0784545 -0.76836574
0.13665427 0.30673325 0.2255155 0.22733986 -0.2390298 -0.25904632 -0.5251734 -0.31034333
0.23147005 0.21356252 0.4472521 0.1806108 -0.49143487 0.0655093 0.10046657 0.0025925376
0.11977764 0.016623696 0.036723875 0.08892788 0.41207242 -0.35971704 -0.752029 0.43130788
-1.058507 -1.0317894 0.119712405 -0.58555233 0.0666664 0.5109004 -0.30528182 0.02208045
0.7225098 -0.47668943 -1.0329951 -0.5890205 1.0751784 0.054509085 0.25781158 0.85984427
-0.21173178 0.44097888 -0.74601597 -1.1640246 -0.83948475 0.00035568041 -0.69069314 0.06710763
1.3534298 0.79396886 0.41988182 0.5750864 -0.12086779 -0.5441069 0.3953264 0.79031104
0.79177177 -0.88233566 -0.052822374 -0.36126593 -1.1323922 -0.8277614 -0.49738657 -0.40599388
-0.584694 -1.3413944 0.21532908 -0.44493142 0.32277793 -0.35986874 0.012817274 -0.5529276
0.6176449 0.41293314 0.7973686 1.3163053 -0.16114268 -0.41573045 0.7544389 0.42927256
0.8332047 0.045421485 0.09116189 0.7113526 0.48254967 0.32367715 -0.0010476953 0.11021958
-0.21414672 0.18940337 1.0225967 0.59508 0.95272744 -0.62671095 -1.3173504 -0.86692244
0.0007600593 -0.23247024 0.61458933 -0.8951172 -0.16222502 -0.01279581 -0.16032232 -0.74942046
-0.09839448 0.5621586 -0.33784056 -0.3226778 0.29265502 -0.03233263 0.06491454 0.18510573
0.007731057 0.03413466 0.38342628 0.16752721 0.5375521 -0.26457888 0.17779832 0.30975354
-0.40380082 0.11975381 0.08926811 -0.20056419 0.35421893 0.107852794 -0.9941692 -0.082196556
-0.077894315 -0.3145987 -0.16531757 -0.72659844 0.31865215 -0.25151032 -0.07987292 0.19108672

feature_extractor.4.bn2.weight f4 [32]
00000000: 0ed5 5c3f 24d3 763f b71b a33f 5bdf 423f
00000010: ea4f 6a3f c636 5a3f 0f7a 2d3f 9552 853f
00000020: 2965 f03e ff88 8f3f b87d 643e 9110 463f
00000030: 1fc3 803f dcc2 223f 1a3f 533f c067 5c3f
00000040: 5ad7 7e3f 4b08 273f a1dc 9a3f e559 243f
00000050: 78c0 8e3f 3b35 983f 55fb 833f aaf8 c63e
00000060: 4baa 703f 562b 703f 9ee2 083f 6de4 0c3f
00000070: 1fd0 9e3f 8996 683e 9824 823f 2277 2f3f
0.86262596 0.96415925 1.2742833 0.76122063 0.9152819 0.8523983 0.6776437 1.0415827
0.4695218 1.1213683 0.22313583 0.7736903 1.0059546 0.6357858 0.8251816 0.8609581
0.9954735 0.6524703 1.2098581 0.6419967 1.1152487 1.1891245 1.0311075 0.3886159
0.94009846 0.93816125 0.5347079 0.5503605 1.2407264 0.22713675 1.0167418 0.6854116

feature_extractor.4.bn2.bias f4 [32]
00000000: faac 5f3a 3dcb 7cbb 9ecb bbbb a852 7939
00000010: e292 bebb 84cd 05bb df23 9e3b 378a 86bb
00000020: 6b7e 0d3c 5cbf b33b 11ec c6b9 a384 22ba
00000030: 7dfe 26ba 24a4 e2b9 55ba 52bb f89d 873b
00000040: f327 323a 07d4 ebba 5a8a 9ebb e4bb f33a
00000050: e7c5 b73b 8e9a 91bb c8da 293b 2e5a b73a
00000060: 29a4 093b 3196 06bb dc2a 4f3c de4b 353c
00000070: 9e81 a63b 0131 cdbb 139b 043c a9ec 133b
0.00085325504 -0.0038573288 -0.00573106 0.00023777282 -0.0058158496 -0.0020416686 0.0048260535 -0.004105832
0.008636097 0.0054854583 -0.00037941386 -0.0006199574 -0.0006370319 -0.00043228373 -0.003215452 0.0041387044
0.0006796114 -0.0017992266 -0.00483827 0.0018595424 0.0056083086 -0.004443473 0.0025917757 0.0013988668
0.0021002388 -0.0020536298 0.012644496 0.011065451 0.0050813695 -0.0062619452 0.008093613 0.002257148

feature_extractor.4.bn2.running_mean f4 [32]
00000000: 026c 0fc0 e282 80c0 e420 d3c0 0c14 67c0
00000010: 05e6 00c1 a3f8 3ec0 2bb2 b4c1 dfa2 10c1
00000020: 6fff 6bbf b580 0141 3be2 05c1 df18 0141
00000030: ce8b 0ac1 1f72 8440 4f03 a441 694a 9fc0
00000040: 634b 6fc1 eeda b040 39dd a7bf 5afe c73f
00000050: 1a7b 49c1 2db0 81c1 dc8b 67c1 a701 4ec1
00000060: 6ded 8e41 86ab 7ac0 0763 dac0 7937 cabf
00000070: c9b2 27c1 e9a2 d0c0 24b5 14c1 a5b3 0041
-2.2409673 -4.015977 -6.597765 -3.6105986 -8.056157 -2.9839256 -22.586996 -9.039763
-0.92186636 8.093923 -8.367732 8.068572 -8.659132 4.138931 20.501616 -4.9778333
-14.955905 5.526725 -1.3114387 1.5624497 -12.592554 -16.211023 -14.471645 -12.875403
17.86593 -3.916719 -6.8245883 -1.5798179 -10.481149 -6.5198865 -9.294224 8.043859

feature_extractor.4.bn2.running_var f4 [32]
00000000: 48bf 5142 77bc e842 a247 b742 c5ce e442
00000010: 17ba a442 4524 8542 1ce9 9243 4d4a 4e43
00000020: e78e bd42 a4d4 0343 1bcc 9b42 a5f3 1b43
00000030: 3ca7 de42 8474 ca42 ec4f 6a43 6b41 c242
00000040: 9e94 4a43 0380 2743 0a1c d342 17f1 f942
00000050: e501 eb42 e698 9c43 b6c0 3a43 1c0e f842
00000060: b5cc 4543 33e8 6842 7cb6 b142 8be3 b942
00000070: 4ef5 0943 08f5 4043 caad 6c43 effb ec42
52.4368 116.368095 91.63991 114.40385 82.36346 66.57084 293.82117 206.29024
94.779106 131.83063 77.89864 155.95174 111.32663 101.22757 234.3122 97.12777
202.58054 167.50005 105.55476 124.97088 117.5037 313.19452 186.75278 124.02756
197.79964 58.226757 88.856415 92.94442 137.95822 192.95715 236.67886 118.49206

feature_extractor.5.weight f4 [32]
00000000: 162f 713f d287 bb3f f176 9a3f c99c a23f
00000010: 976a a23f 161a 673f 3cb7 b13f 3c7d 9c3f
00000020: 93c7 be3f c209 813f 2e27 b53f f108 a83f
00000030: 7361 8c3f 5289 8b3f 0968 b63f 604b be3f
00000040: 5e19 9f3f 9824 aa3f 8698 9e3f ecd0 a03f
00000050: ad80 923f 9b1e d53f f750 b13f 67d5 9c3f
00000060: e527 9e3f 7ad0 823f 2b2d a43f 9f5e 963f
00000070: 3a52 863f 1fbb 913f 6092 a03f 47be a03f
0.9421247 1.4650824 1.2067548 1.2704097 1.2688779 0.9027418 1.3884044 1.2225718
1.4904655 1.0081103 1.4152582 1.3127729 1.0967239 1.0901282 1.4250499 1.4866753
1.2429616 1.3292418 1.2390296 1.2563758 1.1445519 1.6649965 1.3852834 1.2252625
1.2355925 1.0219872 1.2826284 1.1747626 1.0493844 1.138523 1.254467 1.2558068

feature_extractor.5.bias f4 [32]
00000000: fd65 da3d 015b 9cbe 0172 b7bc a5ea c2be
00000010: b34f 9fbc 1ea0 efbe 59cc fa3e 25e8 1d3d
00000020: 84db dbbe ea83 dbbe 2ca3 943d 4feb 9abe
00000030: a386 363d e3e9 1bbf dcb9 20bf 72ab 69be
00000040: 023c 1a3e e160 e5bd 3b4b cfbe 0a75 38be
00000050: 11b4 c3be 3f46 e73e 10f5 d0bd 331c dabe
00000060: ce57 70bf aa90 02bf 5705 8f3d 5e9d 36be
00000070: 0d3c 0e3d 07dc 78be 19b0 5f3d c484 4ebf
0.10663984 -0.3053818 -0.022393228 -0.38069645 -0.019447183 -0.46801847 0.4898403 0.03855147
-0.42940915 -0.4287408 0.07257685 -0.3025765 0.044561993 -0.6090376 -0.627836 -0.22819307
0.15061954 -0.11200119 -0.40487084 -0.18013397 -0.38223317 0.4517078 -0.10202992 -0.4259964
-0.9388398 -0.5100199 0.0698344 -0.17833468 0.034725238 -0.24302684 0.0546113 -0.80671334

feature_extractor.5.running_mean f4 [32]
00000000: f9f4 943e df02 a73d 4c31 9f3e 5db5 3b3e
00000010: 4657 7c3e 448e e63e 4e3b 093f d7d7 ff3e
00000020: 67e0 623e ec13 993e 450c 3f3e 88b2 803e
00000030: 3acd 513e f480 913e e61c 253e 7ebd 0a3e
00000040: 309a 603f 1a1c 5f3e 9435 af3e c48f 903e
00000050: d7a3 6e3e 3e01 e93e 3afa 773e 43a9 8a3e
00000060: 0bef 383e 6c04 493e 3f3e bc3e 9ee2 8c3e
00000070: 652a 6e3e 4cb0 6d3f 888c 4b3e ae96 483f
0.2909315 0.081548445 0.31092298 0.18330903 0.24642667 0.45030415 0.53606117 0.4996936
0.22155915 0.29898012 0.18657024 0.2513621 0.20488444 0.28418696 0.16124305 0.13548848
0.8773527 0.21788064 0.34220564 0.28234684 0.23304687 0.4550876 0.24216548 0.2708226
0.18059938 0.19630593 0.3676624 0.27516645 0.2325836 0.9284713 0.19877827 0.7835492

feature_extractor.5.running_var f4 [32]
00000000: 974b d03f fe7a 993f 1c9c 0040 7a7c a03f
00000010: c6e6 9d3f 86ee c53f 17e8 8f3f 6e31 be3f
00000020: 130e 3c3f 4adf 4d40 6115 423e 2709 893f
00000030: 048d 9f3f 6d01 a93f 3885 a53f 7418 6c3f
00000040: e1f1 e13f ed04 593f de58 1c40 1f72 6f3f
00000050: 2e75 f93f 4792 0240 5961 ef3f 6695 c43e
00000060: 3abe df3f b215 c63f f5dd 583f ea07 573f
00000070: cc62 0940 091f e43f c326 b63f c456 6d3f
1.6273068 1.1990659 2.0095282 1.2537987 1.2336051 1.5463417 1.1242703 1.4858835
0.73458976 3.2167535 0.18953468 1.0705918 1.246491 1.320356 1.293128 0.9222481
1.765194 0.8477314 2.442924 0.9353351 1.9488885 2.040178 1.8701583 0.38395232
1.7479928 1.5475371 0.8471368 0.8399645 2.146655 1.7821971 1.4230579 0.9271052

feature_extractor.7.conv1.weight f4 [64, 32, 3, 3]
00000000: 48e3 e2bd 2647 7b3d f11e 033e 891f e93e
00000010: eec8 f9bc f7ea 36bf 7757 873e ef65 5b3f
00000020: 52f2 30bc 5126 43bf 0a83 f43e f5b5 9fbf
00000030: 9b47 383f bbdb 293f 0399 603e 5b35 91be
00000040: ffe5 ee3e 48e3 bc3d f228 013f 9ed8 b4bd
00000050: 6a01 e13f ab70 3c3e ca8a bbbe 33e2 053f
00000060: 47ea c3bc 88d4 54be 6a9b 883d 00d6 173f
00000070: 7fe2 403e 25ca 8bbf 0dd1 213f 654f b0be
00000080: fcea 33bf 15c9 5fbf 4da4 c8be 4718 18be
00000090: afc7 7d3b 5239 a2be c2da 553f 5640 df3d
000000a0: d380 593f e59a 17bf b483 1cbe 8ef6 a63e
000000b0: 25be 45be 0119 d1bf b702 96be 0df4 92bf
000000c0: b115 eebc b805 b63e a605 93bf 1209 d9be
000000d0: a747 363f c4e6 7b3e ecc8 97be 92a0 f73e
000000e0: aa3d 1e3f ddbf 1bbe 49c5 8ebe 74d7 8ebd
000000f0: 4d49 91be 41c6 163f 0c85 9a3e bd32 8ebe
00000100: 3466 babd 28b5 0a3f cda5 90bf 5811 ccbd
00000110: 5b33 96be d02e f03e 1073 cdbd 482b c33d
00000120: dcf4 34bf 6ed2 98be 7cb9 2cbf 0db0 3e3c
00000130: 133b f6be 4c85 36be 29d1 593f 681d 763e
00000140: 4d1b bbbe 8e94 4ebf cfa7 37be 20f5 413e
00000150: 3376 653d b616 36bf b1b8 80bf 7ad8 6dbf
00000160: 1add 4cbe 330e eebe 3db9 56bf 2ad4 933a
00000170: 2ede 66be 460d cbbe ed40 303f 2557 bfbe
00000180: 56e9 5fbe 4183 9e3f 9ba5 563f 3315 88be
00000190: 0f08 1dbe 3917 1fc0 7a88 cc3e f295 263f
000001a0: 9a14 7bbf b57c b4bf 5e31 96bf ede3 5dbf
000001b0: 5956 98bc 56c2 863e 0fa4 f63d 3e8f 6e3f
000001c0: 7a5c 723f 8daf d0be 1cb6 5c3f 0dc9 1bbe
000001d0: b650 e1be 191e 74bf 8e20 bebf 8b85 17bf
000001e0: 34dc 3dbf de15 23bf 1b54 68bf 8a5a 21c0
000001f0: 3f06 62bf ea5c 3cbf 7e45 babf 6720 9ebf
00000200: 4a7a bebe 751f fa3e ae14 81bb 4e27 bdbf
00000210: 19aa 213f aaad bb3d 669e 053e efdf 043f
00000220: e18d eb3e 58d8 263f 440b 0b3f d30a 9d3e
00000230: 84d0 4c3e 299d 4a3f 9fb5 9f3f 4c97 f73d
00000240: 5aa0 69bf 7e45 1b3d 8fab 023f a9a3 613e
00000250: ce98 2f3f 595b ebbe eb13 e13e 30a5 513f
00000260: 7190 343f c708 41bf 62fa ab3e c4a3 0a3f
00000270: f2a3 27ba d8a7 073f 0a8d 5bbd 0936 ae3e
00000280: a4f2 2b3e 239b 5dbe 53df 9ebf 64a2 05bf
00000290: 7ce5 0bbf 8082 863f f139 0d3f 6fb9 09be
000002a0: bbb5 cd3e 1f84 6b3e a0c9 d0be ab6f 24bf
000002b0: 4c74 e93e cc5a 703f 54d5 9d3e 8c50 8fbe
000002c0: 095a 833e 1da4 713e 6ef2 263f 8f37 f1bd
000002d0: 3d04 0fbf b808 9f3e 0d2b 8b3e d50a c73e
000002e0: d41a cebd 036a ed3d bbc1 d73d c296 273e
000002f0: 7c62 953b dc33 8abf 1ce3 a5be f926 0d3f
00000300: 734d 04bf 14a9 7fbe 9b44 71be b122 a13e
00000310: 2252 403f b672 1c3f ca39 563d a0f3 efbd
00000320: d339 57bf bab5 ca3e 7160 c83e 9bc2 e9be
00000330: dabe 8c3e 1324 1abe 268e 2abf 9c13 99bf
00000340: d57c 5f3d 604c f63d 58e3 b3bf d9b3 c8be
00000350: 30c7 0c3e f7e5 47bf e651 7e3d daef 41bf
00000360: 7029 49bf c594 893e 3751 0a3e 11fc c4bf
00000370: 2eb9 4f3f 206a adbf 3d8a 943d c2cd 743e
00000380: ae50 c9be e37a 563f 8a1f b33e 1b52 713e
00000390: 6c3a 283f 03a6 ad3f 7dbc 80be 62b0 b83f
000003a0: 02f3 993f 87eb 02bf 68c2 5e3e 01ce 5bbe
000003b0: 2ef6 f1be 9d61 3cbf b17c 113f 143e 41bf
000003c0: b87e 58bd f43e 023f e7d7 63be 839e a3be
000003d0: 96e0 43bb 6679 74be 013e e0bc 1e73 c63e
000003e0: cea9 bd3e f326 07bf c8fe 493f 95f2 273e
000003f0: 0c2e 6abf be44 ffbe d362 f4be f923 7a3f
-0.11078507 0.06134715 0.12804772 0.45531872 -0.030491319 -0.7145228 0.26433918 0.85702413
-0.010799961 -0.7623034 0.47756225 -1.2477404 0.7198426 0.6635091 0.2193337 -0.2836102
0.46659848 0.09223038 0.504531 -0.08830379 1.7578557 0.18402354 -0.36629325 0.5229828
-0.023915423 -0.20784199 0.06670268 0.59310913 0.18836401 -1.0921065 0.6320961 -0.34435573
-0.7028043 -0.874162 -0.39187852 -0.14853011 0.0038723757 -0.31684357 0.8353692 0.10900943
0.84962195 -0.59220725 -0.15284616 0.3260998 -0.19310816 -1.6335756 -0.29298946 -1.1480728
-0.029063078 0.35551238 -1.1486099 -0.42389733 0.7120308 0.24599749 -0.2964548 0.48364693
0.6181284 -0.15209909 -0.27884892 -0.06974688 -0.28376237 0.5889626 0.30179632 -0.27773085
-0.09101525 0.5418267 -1.1300598 -0.099642456 -0.29336056 0.46910715 -0.10031712 0.095297396
-0.70686126 -0.29848045 -0.67470527 0.011638653 -0.48091945 -0.17824286 0.8508478 0.24034655
-0.36544266 -0.80695426 -0.17935108 0.18941164 0.056020927 -0.71128404 -1.0056363 -0.9290844
-0.20006219 -0.46495208 -0.838764 0.001127844 -0.22545692 -0.39658564 0.6884907 -0.37371174
-0.21866354 1.2383806 0.83846444 -0.26578674 -0.15335105 -2.4857924 0.39947873 0.6507255
-0.9807831 -1.4100558 -1.1733816 -0.8667591 -0.018595861 0.26320142 0.120430104 0.9318732
0.9467236 -0.40758935 0.86215377 -0.15213414 -0.4400689 -0.95358425 -1.4853685 -0.59188145
-0.7416413 -0.6370524 -0.90753335 -2.521151 -0.8829078 -0.73579276 -1.4552457 -1.2353638
-0.37202674 0.48852125 -0.003939233 -1.477762 0.63150173 0.09163983 0.13048705 0.51904196
0.46006683 0.65173864 0.54314065 0.3067232 0.20001417 0.7914606 1.2477301 0.120894045
-0.912603 0.03790807 0.5104303 0.22035088 0.68592536 -0.4596813 0.4396051 0.8189268
0.705329 -0.7540402 0.33589464 0.54156137 -0.0006394974 0.52990484 -0.053601302 0.340256
0.16791779 -0.21641211 -1.2411903 -0.52200913 -0.5464704 1.0508575 0.55166537 -0.13449644
0.40177712 0.22999619 -0.40778828 -0.6423289 0.4559654 0.93888545 0.3082682 -0.2799114
0.2565463 0.2359776 0.6521367 -0.11778175 -0.5586584 0.3106134 0.27181283 0.38875452
-0.10063711 0.11592486 0.10534998 0.16366103 0.0045588594 -1.0797076 -0.32399833 0.5513759
-0.5168068 -0.24966842 -0.23561327 0.3147178 0.75125325 0.61112535 0.052301206 -0.1171639
-0.8407261 0.3959177 0.3913608 -0.45656285 0.27489358 -0.15052824 -0.6662315 -1.1959109
0.05456241 0.12026286 -1.4053755 -0.39199713 0.13747859 -0.78085274 0.062089823 -0.7575661
-0.78578854 0.26871315 0.13507544 -1.5389425 0.81141937 -1.3548012 0.07252929 0.23906615
-0.39319366 0.8378126 0.34985 0.23566477 0.65714145 1.3566288 -0.25143805 1.4428828
1.2027285 -0.51140636 0.21753848 -0.21465303 -0.47258133 -0.73586446 0.5683089 -0.7548535
-0.052855223 0.5087731 -0.22250329 -0.31956872 -0.0029888502 -0.23874435 -0.027373316 0.38759702
0.37043613 -0.52793807 0.7890439 0.16401131 -0.9147651 -0.49857134 -0.47731647 0.9771114

feature_extractor.7.bn1.weight f4 [64]
00000000: 1b12 b13f 340e b03f c50e b03f e430 9a3f
00000010: ec72 ba3f 4055 8d3f 12d4 ac3f 2176 863f
00000020: 6aac f43f c6a3 f43f 12b8 bd3f aaa0 bd3f
00000030: 69ab 9a3f 6c39 b23f c714 ac3f 9aec ad3f
00000040: d6b7 a43f fc80 c03f aa91 ad3f d81e c43f
00000050: b8ac f43f bc01 b83f fdaf d93f 0945 c83f
00000060: ae00 b13f bb19 b53f 093a a13f a624 c33f
00000070: cb6a a33f 2610 d13f 2976 a43f 760e d43f
00000080: 8616 c53f c6cf 933f 34ff 8f3f 32c1 8d3f
00000090: 3909 aa3f 89b1 b93f 0938 b13f 4828 8c3f
000000a0: c748 b33f ab42 c53f 7460 a83f 2fbf 603f
000000b0: c4ab a43f be51 ad3f d4c8 b33f f639 873f
000000c0: e40e ae3f f606 ea3f 0d69 9a3f 5a89 a83f
000000d0: cdf3 8e3f ae58 a93f 1530 a13f 8698 d93f
000000e0: 39d4 bc3f 5b3f ca3f 3d9a ba3f d6e4 bf3f
000000f0: 7561 b43f e445 9c3f d9bd a93f 7833 b63f
1.383365 1.3754334 1.3754507 1.204617 1.4566321 1.1041641 1.3502219 1.05048
1.9115117 1.911248 1.4821799 1.4814656 1.208356 1.3923774 1.3443841 1.358783
1.2868602 1.5039363 1.3560078 1.5321913 1.911521 1.4375529 1.7006832 1.5646068
1.3828332 1.4148477 1.2595836 1.5245559 1.2766966 1.6333053 1.284856 1.6566913
1.5397499 1.1547782 1.1249757 1.1074584 1.3284065 1.4507304 1.3845226 1.0949793
1.4006585 1.541097 1.3154435 0.87791723 1.2864919 1.3540571 1.4045663 1.0564563
1.3598294 1.8283374 1.2063309 1.3166916 1.1168152 1.3230188 1.2592798 1.6999671
1.4752265 1.5800585 1.457832 1.499171 1.4092242 1.2208829 1.3261062 1.4234457

feature_extractor.7.bn1.bias f4 [64]
00000000: 98a1 b7be 292b 37bf 0333 72bf 9b2f 34bf
00000010: 3bd6 59be 45ef a6bf 0f4a 62bf 4951 97bf
00000020: 5466 45be 7c21 6fbf c1be 6ebf 6a46 9bbe
00000030: ed2d a8bf 4e48 29bf 83a0 28bf 01eb 5bbf
00000040: 7493 cbbe d681 26bf 42d3 3dbf 6a1d 88bf
00000050: c973 38bf 3d7b 07bf 6eef 49bd 44d0 3ebf
00000060: f3a4 84bf 0bc6 2ebf b6d8 65bf 86b9 72bd
00000070: db75 b6bf 0879 05be 3e54 dabe af77 c3be
00000080: 44cb 3bbf 86e9 63bf fdc3 b7be 2b38 94bf
00000090: 0d35 4dbf c4b3 07bf b4f9 26bf bbab 29bf
000000a0: 50a7 82bf f7ff 7ebf a379 7bbf 3029 bbbf
000000b0: 8280 5ebf ba71 4ebf aac0 5bbf dc42 aabf
000000c0: 032e 5abf a23f 1dbf 76ca 89bf 0117 96bf
000000d0: 1a87 96bf 3722 67bf 52e9 45bf 2af0 94bf
000000e0: 80ff 99bf 320e 16bf 647b 45bf 465a 56bf
000000f0: a0a0 2abf 68be 5dbf b506 42bf 0156 3cbe
-0.35865474 -0.7155023 -0.9460909 -0.7038514 -0.21273129 -1.3041769 -0.88394254 -1.1821681
-0.19277316 -0.9341047 -0.9325982 -0.3032716 -1.3139015 -0.66125953 -0.6586992 -0.8590546
-0.39760935 -0.65041864 -0.7415048 -1.0633976 -0.72051674 -0.5292242 -0.049300604 -0.7453654
-1.0362839 -0.6827094 -0.897838 -0.05925896 -1.4254717 -0.13034451 -0.42642397 -0.3817725
-0.73357034 -0.89028203 -0.35891715 -1.1579641 -0.80159074 -0.53008676 -0.65224767 -0.66277665
-1.020731 -0.9960932 -0.9823248 -1.4621944 -0.8691484 -0.8064228 -0.8584086 -1.3301654
-0.8522646 -0.6142522 -1.0764911 -1.172577 -1.175998 -0.9028658 -0.77309144 -1.1635792
-1.2031097 -0.5861541 -0.77141404 -0.83731496 -0.66651344 -0.8661866 -0.75791484 -0.18392183

feature_extractor.7.bn1.running_mean f4 [64]
00000000: ea30 3ec0 13f1 04c1 f12f eac0 b4c2 f6c0
00000010: 15df acc1 f3a3 94c0 4e38 24c1 3256 f43f
00000020: 6fc5 cec0 2b8c c23f 9562 a4bf 4013 3ac1
00000030: 366e af3f d1ca 94bf 03b8 42c1 34c8 50c1
00000040: 4178 e8be bd52 d3c0 bd29 b9c1 812a 3440
00000050: 0fa9 af40 ec7b 54c1 ffce 50c1 58af b9c0
00000060: f995 7bc1 2d6b cdc0 73ff dc40 c336 7cc1
00000070: 3ffb 5d40 7c02 91c1 517a e2bf 40c7 9d40
00000080: 6067 58bf 4d52 c840 3f14 c2c0 235d 61c1
00000090: 683f 71c1 9c96 8bc1 ba91 1bc1 9419 e2c0
000000a0: 8f2d 64c1 6b85 fd40 3d36 9ec0 e4a4 ff40
000000b0: 1523 b2c0 ca15 28c1 1679 8ec0 0c16 8fc0
000000c0: cdf7 6ec1 cc3c 2540 a9a4 3ec1 67e7 84bf
000000d0: 0d57 03c1 7f73 ccc1 e81d 59c1 ffb8 59c0
000000e0: 76e6 d8bf d423 ac3d 79c2 93c1 a490 8bc1
000000f0: d3c1 09c1 90b3 1ec1 835a 9cc1 01d4 3640
-2.9717355 -8.308856 -7.318352 -7.7112675 -21.608927 -4.6450133 -10.263746 1.9088805
-6.461601 1.5199026 -1.2842585 -11.6297 1.3705509 -1.1624395 -12.169925 -13.048878
-0.45404246 -6.60385 -23.14538 2.8150942 5.489387 -13.280254 -13.050536 -5.8026543
-15.724114 -6.419333 6.906183 -15.76337 3.4684598 -18.126213 -1.7693578 4.9305725
-0.8453274 6.2600465 -6.0649714 -14.085238 -15.07798 -17.44854 -9.723078 -7.0656223
-14.261123 7.9225364 -4.944121 7.9888783 -5.5667825 -10.50532 -4.452281 -4.4714413
-14.935498 2.5818357 -11.9152 -1.0383118 -8.208753 -25.556395 -13.569801 -3.4019163
-1.6945331 0.08405271 -18.469957 -17.445625 -8.60982 -9.9188385 -19.544195 2.8566897

feature_extractor.7.bn1.running_var f4 [64]
00000000: 37ab 0043 8469 c742 6c14 a842 9fd8 c742
00000010: 3d4b 1b43 599c 2243 cc39 9e42 1243 0343
00000020: 5b97 4b43 d501 2d43 c062 0543 e274 e842
00000030: 15b6 d642 15d5 1643 9efe df42 98d0 0343
00000040: ff34 af42 91d7 0743 bb2b 1443 aee1 0d43
00000050: 6416 3743 a3f1 a742 85e0 bf43 78e7 f942
00000060: 9d0c 3243 7250 0e43 6ea3 fb42 cd38 0143
00000070: 26e6 8443 982e 0443 c77b 4b43 366c d642
00000080: 64fe 2943 80bd de42 d836 2243 6240 0c43
00000090: a44a e842 b247 ff42 5e00 0543 f182 0043
000000a0: be1a cf42 2bf4 0743 5952 da42 2cbe 1d43
000000b0: 2d9a 9442 1eee ae42 6b6a a242 8256 be42
000000c0: a812 d742 f737 5843 9b4a b842 12da 2943
000000d0: 77d9 f542 5d05 1743 7960 9d42 b2a0 6c43
000000e0: fba4 8b43 f5c9 4343 5396 fa42 c5ea 0543
000000f0: f82d 4543 7c37 3543 160b 0443 97cb 2743
128.66881 99.706085 84.03989 99.92309 155.2939 162.61073 79.112885 131.262
203.59123 173.00716 133.38574 116.22829 107.35563 150.83235 111.9973 131.81482
87.60351 135.84206 148.17082 141.88156 183.08746 83.97195 383.75406 124.95209
178.04927 142.31424 125.8192 129.22188 265.79803 132.182 203.4835 107.21135
169.99371 111.37012 162.21423 140.2515 116.14578 127.64003 133.00143 128.51149
103.55223 135.95378 109.160835 157.74286 74.301125 87.46507 81.20785 95.16896
107.53644 216.21861 92.14571 169.85184 122.924736 151.02095 78.68842 236.62772
279.2889 195.7889 125.2936 133.91707 197.17957 181.21674 132.0433 167.79527

feature_extractor.7.conv2.weight f4 [64, 32, 3, 3]
00000000: 1a58 80bd 09f5 123e e27a 443f 49c9 7e3d
00000010: 8b40 d23e 0ee9 e03e 270c c73d cabb 73be
00000020: 5045 81bf 8060 56bf 94a0 493e 6a27 46bf
00000030: f984 023f d1e5 823e 6df4 86be fec2 a33e
00000040: d81c 03bf 76db d5be 86a1 74be f5c1 05bf
00000050: 6c22 babe 7583 083e dba4 47be aca6 133f
00000060: 18f6 70bc 3d8e 083f 757c e93f c619 21be
00000070: 6974 7c3e c86a 8ebf 493f cf3f 9696 c13e
00000080: 25a6 c63e 57ac 233f 6494 88be a714 33bd
00000090: 7d39 bdbf f7cd 88bf a2a4 27bf cb2d 8b3c
000000a0: 2917 823c f60c cb3f 2a1d c03d 89b2 cdbe
000000b0: 24e9 ebbd 4597 83bf 9aa2 74bf 3076 30bf
000000c0: 3528 13bf 83cc e8be 70c4 c8bf 1232 1fbf
000000d0: 0f8c eabe be5e 06bf e434 55bd ad58 09be
000000e0: 862f 5d3e 0648 163e 2333 bfbe f189 ffbe
000000f0: ba9b 71bf 9e44 63be fe04 ff3d 8704 e13d
00000100: dd78 48be 2fa9 293f a16c ff3e 1872 523f
00000110: 7f0d 663f 7990 0abe 0b96 90be 932b c03e
00000120: f50a 073f ef12 903f 2c1a e2be 675d 01bf
00000130: e690 3e3e 4853 3fbe 42de d53e d910 f43c
00000140: cb4a 143f 3539 bfbd d490 c6be 85b6 fc3d
00000150: 2038 36bf 92d4 89be 4800 d73e dd6d 1dbe
00000160: 8956 87bc b41b 03bf 20e0 7dbd 17dc 01bf
00000170: c571 6cbe 9511 97bf 09f0 b1be 0d26 53bf
00000180: be3f 2fbe 1f18 3c3f fbe6 4f3f 9d1f 4cbd
00000190: fe77 853e 07d9 753d 6f63 de3e c18a 5e3e
000001a0: 63a6 55bf 882f 903e 01cf 91be 53bc 91be
000001b0: dbbf 59bf a639 abbe 6739 79be b6a7 583d
000001c0: 66ae ae3e c0a3 9bbf 8be3 00bf acf9 3fbe
000001d0: 4622 8dbe bd4c 7fbf 64c8 3d3f 3cf6 953e
000001e0: f6e1 29bf b41e a93e d8f8 253f 828c 18bf
000001f0: 9966 a7be 7c40 1f3f 8121 d5bf 12b1 2dbf
00000200: 4c62 3dbf 752c 1ebc 0ad2 813d cd5c 99be
00000210: de7f a1be 093b 993d d62d 09be ef3d 2d3f
00000220: 9213 b13d 23c9 be3e f986 273d 4eee d33e
00000230: a917 ffbe 139b d0be 828b d33e 6194 983e
00000240: 1b12 c2bf cfca 73bf 1aeb 8dbf 640a 46bf
00000250: 964d 093f 3ede a7bf 59bf 71bf 4d8b 2c3e
00000260: d0a4 233f 4dd2 bcbe d30d 3ebf 0c59 453e
00000270: b8c7 8abf 40a3 10bf 97c6 46bf ff57 6bbe
00000280: 9591 3cbe a3fb a7be b46d a6be 714b 51bf
00000290: a0af 7bbf 27be 733e 4c7a dabe 8c68 5ebf
000002a0: 60ed b3be 3003 0ebf 3e40 c3be bc34 63bf
000002b0: 3786 97bf b2e2 0ebf d16d ca3c 4f03 72bf
000002c0: 4da0 04bf c854 a23e 951a 72be c92b 39bf
000002d0: 1580 49bf dd46 18bf d1eb ce3d 081a 8dbe
000002e0: 2513 9abe c399 6a3f 84ad cfbc b2c5 9bbe
000002f0: 8b2c 01bf 638d a4bf 82e4 a2bf fd8f 52bf
00000300: a124 813e 06c2 86bd 0178 dd3d 7811 fb3e
00000310: e4ab 703e 61ff 213e 1e71 663f 0363 843e
00000320: eb14 673e 8216 c33e 68a6 a53f 4bc4 c03e
00000330: d26d 613f 32c9 a53f 8193 183f 84c7 0bbf
00000340: 7390 7abe 90c7 23be 2e49 dfbf e8a0 71bf
00000350: d5ad 89bf 1d90 e13d e373 b23e 6f79 3dbe
00000360: be60 acbd 15cd 623e 99ee f23d f4f2 0abf
00000370: c250 f03e b0aa 25bf b6c3 0dbe 4aeb 533d
00000380: e771 b6be 00bc 7f3f cebe 643f b2dc 5c3f
00000390: 653e 96bd 0e8a d63b 966d 11be c1b3 133f
000003a0: 5bf3 c0be 1a76 cbbe eb4c 2ebe 1437 21be
000003b0: 118d 1c3e eba6 cebe 15e6 613e 6367 babf
000003c0: d134 1b3d e9c0 413f 72b8 50bf 436f d13e
000003d0: a09e 083f d23e acbe a4af 1e3f 4bbb fa3e
000003e0: 483d 313d d39a 83be 2e56 ca3e 67a2 443f
000003f0: 97e6 2abf d56d 51bf 8e98 eabf 293e a13e
-0.06266804 0.14351286 0.76750004 0.06220368 0.41064867 0.43927807 0.09719115 -0.23802105
-1.0099277 -0.83741 0.19690162 -0.7740389 0.5098415 0.2556596 -0.26358357 0.31984705
-0.5121589 -0.41768998 -0.23889741 -0.5224908 -0.36354387 0.13331397 -0.19496481 0.57676196
-0.014707111 0.5334204 1.8241106 -0.15732488 0.24653782 -1.1126337 1.6191188 0.378102
0.38798633 0.63934845 -0.26675713 -0.043720867 -1.4783169 -1.0687855 -0.65485585 0.01698961
0.015880184 1.586333 0.093805626 -0.40175274 -0.115190774 -1.0280539 -0.9556061 -0.6893034
-0.57483226 -0.4546853 -1.5684948 -0.62185776 -0.4580998 -0.52488315 -0.052052394 -0.13412733
0.2160016 0.14675912 -0.37343702 -0.49909928 -0.94378245 -0.22194144 0.12452124 0.10987192
-0.19577356 0.6627378 0.49887565 0.82205343 0.89864343 -0.13531674 -0.28239474 0.37533244
0.52751094 1.1255778 -0.44160593 -0.50533146 0.18609962 -0.18684113 0.41771132 0.02979319
0.57926625 -0.09337083 -0.3878237 0.123395 -0.7117939 -0.2691999 0.41992402 -0.15373941
-0.016520755 -0.51214147 -0.06198132 -0.50726455 -0.23090275 -1.1802241 -0.34753445 -0.82479936
-0.1711416 0.73474306 0.81211823 -0.049834836 0.2606811 0.060021427 0.43435237 0.21732618
-0.8345701 0.28161263 -0.28478244 -0.28463992 -0.85058373 -0.3344242 -0.24338304 0.052894317
0.3411743 -1.2159348 -0.50347203 -0.18747586 -0.2756521 -0.9972647 0.74133897 0.29289424
-0.66360414 0.33031237 0.6483283 -0.595894 -0.32695463 0.6220777 -1.665085 -0.6784831
-0.73978114 -0.009654154 0.0633889 -0.29953614 -0.31542867 0.07481963 -0.13396391 0.6767263
0.08646311 0.3726283 0.040900204 0.4139275 -0.4982274 -0.40743312 0.41317374 0.29800704
-1.5161775 -0.95231336 -1.1087372 -0.77359605 0.5363401 -1.3114698 -0.944326 0.16850014
0.6392336 -0.36879197 -0.74239844 0.1927225 -1.0842199 -0.564991 -0.77646774 -0.22982787
-0.1841491 -0.3280917 -0.32505572 -0.8175574 -0.9831486 0.23803006 -0.4267143 -0.86878276
-0.3514204 -0.55473614 -0.3813495 -0.8875234 -1.1837834 -0.5581466 0.024710568 -0.945363
-0.518071 0.31705308 -0.23642953 -0.72332436 -0.7871106 -0.5948313 0.10103572 -0.27558923
-0.3009273 0.9164087 -0.025351293 -0.30424267 -0.5045859 -1.2855648 -1.2725985 -0.8225096
0.25223258 -0.06579976 0.108139046 0.49036765 0.23503071 0.15820076 0.90016353 0.2585679
0.22566573 0.3810311 1.2941408 0.3764976 0.880582 1.2952025 0.59600073 -0.5460131
-0.24469166 -0.15994096 -1.7444208 -0.9438615 -1.0756174 0.110138156 0.3485404 -0.18503354
-0.084168896 0.22148545 0.11861915 -0.5427697 0.46936613 -0.64713573 -0.13844189 0.05173806
-0.35633776 0.9989624 0.89353645 0.86274254 -0.073361196 0.006547219 -0.1420196 0.5769616
-0.37685665 -0.39738542 -0.1702153 -0.15743667 0.15288188 -0.40361723 0.22060426 -1.4562801
0.037892167 0.7568498 -0.8153144 0.40905198 0.5336704 -0.33641678 0.61986756 0.48971018
0.043271333 -0.2570406 0.39518875 0.76810306 -0.667581 -0.81808215 -1.8327806 0.31492737
